examples/single_chip/lcd_cam_loopback/components/esp-face/tutorial/weights/conv2d_2_kernel.npy (npy, 147584 bytes, 1 tensors)

array f4 [3, 3, 64, 64]
000000 4e 30 b0 3d 0e 6c da 3d a4 fc a7 bd 47 87 9d bd
       0.086029634 0.10665141 -0.08202484 -0.07691818
000010 d0 ad 04 be 70 72 8f bd d5 a0 d3 bd 42 c2 27 be
       -0.12956929 -0.07004249 -0.10333411 -0.16382697
000020 af 18 96 3c ac 4c 23 bd 8b 81 d6 3d 57 bc c7 bd
       0.018322317 -0.039868042 0.10473927 -0.0975272
000030 47 b3 ae 3d 3c 3c 7e bd e0 13 31 bc c1 82 03 bd
       0.08530288 -0.062069163 -0.010807961 -0.03210712
000040 3f 9b bd 3d 41 d8 f9 bd 5f a9 68 bc ca dd 89 3c
       0.092581265 -0.1219945 -0.014200537 0.01682939
000050 0b f5 a5 3d 74 52 0a 3d 9a 1f 15 be 8b 3e 3f bc
       0.08103379 0.03377004 -0.14562836 -0.011672626
000060 78 b6 ee bd c4 a9 7e bd 96 9b 9c bd cb 3f a0 3d
       -0.11655897 -0.06217362 -0.07646863 0.078246675
000070 a6 a9 b4 bd 72 e5 b7 bc 9b 48 15 3c 80 02 a2 3d
       -0.0882142 -0.022448275 0.009111549 0.07910633
000080 d9 55 ca 3a 6c d3 d8 3d a6 8f c4 b9 c7 31 17 be
       0.0015436962 0.105872005 -0.0003749106 -0.14765082
000090 3c 11 fd bd cf a4 fd 3c 71 0a 13 be 8b 0b 5b bd
       -0.12356803 0.030962376 -0.14359452 -0.053477805
0000a0 95 49 dc bc cb 7e 9c 3c ae 0f a5 bd 04 15 ce ba
       -0.026890555 0.019103428 -0.08059631 -0.0015722816
0000b0 95 86 8e 3d 66 b6 b1 bd 39 2f a7 bc 1b 93 9e bb
       0.06959263 -0.08677368 -0.02040826 -0.0048393137
0000c0 bb 57 ef bd 4b 24 19 3c aa 05 eb 3c b2 1e 4c bd
       -0.11686655 0.009347032 0.028689224 -0.04983396
0000d0 b2 93 e2 3c 14 96 18 3d 53 43 1a be 9a 7d 7f bb
       0.027658317 0.0372525 -0.15064745 -0.0038984776
0000e0 7e 24 99 bd 05 63 af 3d 6f 6a e4 3b 7d 76 3e 3c
       -0.074776635 0.08563808 0.0069706957 0.0116249295
0000f0 dd bf a7 3c ab ef cd bc 80 1b a0 bb ae e2 55 3d
       0.02047723 -0.025138697 -0.0048860908 0.05221813
000100 55 00 ed bd ee de b8 bc bd 8f 47 3e 22 35 4a 3d
       -0.11572329 -0.022567239 0.19488426 0.049367078
000110 82 4b 56 3d bb 41 d5 3d 9e eb 92 bd 86 3a 32 3d
       0.052318104 0.10412928 -0.07173847 0.043512844
000120 de 12 fd 3c bb 8e 3a 3d a3 ee cb 3c 75 d4 2a 3c
       0.030892786 0.045546275 0.024894064 0.01042663
000130 5e 39 8a bd e2 9f 1c 3d a9 f9 ad bc ca bb c1 bd
       -0.06749223 0.038238414 -0.021237211 -0.09459646
000140 1b 3d 06 3d 77 96 0b 3d e3 60 8b 3d 3b 38 ab bb
       0.03277312 0.03407904 0.06805589 -0.005225209
000150 c3 f2 a1 bd 43 7b 23 3d d9 62 52 3d d2 32 65 be
       -0.07907631 0.039912473 0.0513638 -0.22382668
000160 1a 3d 23 3d 12 5e 13 be 01 21 d2 3d 6b 8f b6 bc
       0.039853193 -0.14391354 0.10260201 -0.022285184
000170 60 7a c7 bd a1 d4 9e bd 9a bf 30 bc 2e e9 73 3b
       -0.09740138 -0.077553995 -0.010787869 0.0037217843
000180 cd 24 90 3c 4c b0 5e be 1f dc 84 bc a2 9e 44 bd
       0.017595673 -0.2174694 -0.016218243 -0.048002847
000190 c1 bd 24 3d 4c 22 a8 bd 04 42 7c bd ca c4 15 3d
       0.040220026 -0.082096666 -0.061586395 0.036564626
0001a0 05 6c bf 3a 2b 0a 57 bd 64 a1 36 bd fa c6 93 3d
       0.0014604336 -0.05249993 -0.044587508 0.07215686
0001b0 49 74 36 be 05 cd 45 bc b9 0f d5 bc e2 b5 37 3d
       -0.17817797 -0.012072806 -0.026008474 0.04485119
0001c0 57 f2 cc 3d bb ac 21 3c 57 46 55 3e 43 39 fa bc
       0.1000716 0.009867842 0.20827614 -0.030544883
0001d0 83 44 09 3e 51 00 60 bd dc 6f a8 3d 3f e9 6e ba
       0.13405041 -0.0546878 0.082244605 -0.0009113736
0001e0 45 42 16 bd 57 1c c3 3d 1e 30 0b be d1 02 c8 3d
       -0.036684293 0.0952689 -0.13592574 0.09766162
0001f0 25 90 b1 bd a0 ef 61 bd e0 71 8f 3d dc e4 90 3d
       -0.086700715 -0.055160165 0.07004142 0.070749015
000200 e8 c1 bc bd d0 03 4e be 92 1a ce bb e3 c1 13 bd
       -0.09216672 -0.20118642 -0.0062897885 -0.036073577
000210 79 10 e3 bd 6d d5 ea bc 85 d8 b1 bd 3a 33 80 3c
       -0.11087126 -0.028666222 -0.08683876 0.015649427
000220 fb 14 e0 3c 87 9c 87 bd af b3 81 3c c5 d9 29 bc
       0.027353754 -0.06621652 0.01583275 -0.010366862
000230 ee f3 9d 3d e0 81 ac bd 3d e4 f7 bc 53 b5 b1 bd
       0.077125415 -0.08423209 -0.0302602 -0.08677163
000240 1e 49 e8 bb 1d 98 40 be a6 3d 8c bd 53 14 d2 bc
       -0.0070887944 -0.18808027 -0.06847696 -0.025644457
000250 84 5f 92 bd 7d 22 3a 3d 87 40 bc bd 6a 52 47 3c
       -0.071471244 0.045443047 -0.09191995 0.012165645
000260 58 e2 a5 bd ba b4 e5 3d 05 8b 80 bd 95 b3 1c be
       -0.08099812 0.112161115 -0.06276516 -0.1530288
000270 28 e5 d5 bc 36 65 60 bb 29 3b 3a bd aa ab c2 3d
       -0.026110247 -0.0034240014 -0.045466576 0.095053986
000280 ef a9 df 3c bf 65 5a bd 25 27 0d bd 9c 08 0a 3e
       0.02730271 -0.05331969 -0.03446116 0.13479847
000290 6a 6b 31 be dd 36 65 be 1e b2 b8 3c d2 38 fa 3c
       -0.17326131 -0.2238421 0.02254587 0.030544672
0002a0 f1 b2 aa 3d ee 1a 82 bd 33 5d 24 3e 61 cc 9e bd
       0.083349116 -0.06352793 0.16051178 -0.07753826
0002b0 cd 48 65 bd 98 72 cd bd f3 a9 63 be 73 08 6f 3d
       -0.05597763 -0.10031623 -0.22232799 0.058357667
0002c0 92 29 b2 bc 3e fc f0 3d 45 57 bc 3d 3b 03 73 bd
       -0.021748338 0.117668614 0.09196333 -0.059329253
0002d0 75 80 8e bd ba 40 d2 3c b1 47 81 bd 48 5f a0 3c
       -0.06958095 0.02566563 -0.06312502 0.019576684
0002e0 d8 08 2b bc 7c a7 1e bd 4d 1e fd 3c 79 c3 26 3d
       -0.01043912 -0.038733944 0.030898238 0.04071376
0002f0 11 a4 cb bd 52 44 66 3b d9 61 91 3d a5 26 67 3d
       -0.099434026 0.0035135937 0.07098741 0.05643334
000300 70 13 66 bc 15 e4 fa bd c2 4b 74 3a f4 f3 65 bd
       -0.01404272 -0.122505344 0.000931915 -0.056140855
000310 dd e9 ce bd 5f 12 8a 3d 49 70 40 bd 9b 34 75 bd
       -0.101032 0.06741785 -0.046982083 -0.05986462
000320 23 7f 9b 3b 26 96 40 bd 77 df 84 3d 1b 43 17 3d
       0.0047453805 -0.047018193 0.06487935 0.03692923
000330 7d 90 1b bd 79 f8 0e 3d 5a bc 01 bc 0e 28 b0 bc
       -0.03797959 0.03490493 -0.007918442 -0.021503475
000340 8d a4 1c 3e 03 71 c5 3d 7c ce 6d 3d 32 11 0b 3d
       0.15297146 0.09640696 0.058058247 0.033951946
000350 8b f7 fc bd e8 1f 9e bc 92 62 0f bd 13 5f 37 be
       -0.123519026 -0.019302323 -0.035006113 -0.17907362
000360 1e 8c 17 bd ed e6 a8 bd 8b 01 4f bc d8 ac 6c 3c
       -0.03699886 -0.082471706 -0.012634645 0.014445506
000370 2d 0a b3 bd 9f 54 ea bd 09 a6 20 be 65 c9 fc bc
       -0.08742175 -0.114419214 -0.15688337 -0.030857751
000380 c9 71 41 3d 75 6a 89 3d 9a 15 29 bd 9e 13 d1 bd
       0.047227655 0.06709758 -0.041280366 -0.1020882
000390 79 6d 0d be b8 1e cb bc 54 d2 c5 bd b9 13 43 bc
       -0.13811292 -0.024794921 -0.096592575 -0.011906558
0003a0 69 4e 73 bd c3 ad 91 bd 7a 24 6b 3d 23 a2 e6 3d
       -0.05940095 -0.071132205 0.057407834 0.11261394
0003b0 4f 3e 75 bd e9 e1 17 be 91 e0 10 3c 79 58 c4 bb
       -0.059873875 -0.14832272 0.008842603 -0.005991992
0003c0 a4 d1 de 3d 57 c0 81 3d 6d a9 50 3e f0 aa b7 bc
       0.108798295 0.06335514 0.20377131 -0.022420377
0003d0 43 17 87 3d cb 2a 1a bd f0 99 7a 3b 9d 09 b9 3d
       0.06596234 -0.037638467 0.0038238727 0.09035037
0003e0 e6 5e 1c bb 98 4b a6 bc 1c 2b 5b bd 78 8d 84 3b
       -0.0023860275 -0.020299718 -0.05350791 0.0040451847
0003f0 13 3a 6f 3b 92 5a 5e be 0f 41 9a 3c 09 6e 1b 3c
       0.003650312 -0.21714237 0.01882985 0.009486684
