examples/single_chip/lcd_cam_loopback/components/esp-face/tutorial/weights/conv2d_1_kernel.npy (npy, 204928 bytes, 1 tensors)

array f4 [5, 5, 32, 64]
0	0x3d9cede7	0.07662564
1	0x3d012d11	0.03153712
2	0xbd7c9eaa	-0.06167475
3	0x3c551f6f	0.013007983
4	0x3d33da8a	0.043909587
5	0xbc06621e	-0.008202104
6	0xbd588019	-0.05285654
7	0xbda4719e	-0.08029483
8	0x3c52e353	0.012871581
9	0x3d5104d8	0.05103001
10	0x3d386fe3	0.04502858
11	0xbd5bde46	-0.053678773
12	0xbc08c72e	-0.008348269
13	0xbc2f2804	-0.010690693
14	0x3d0dc4f7	0.03461167
15	0x3d43b733	0.047782134
16	0x3d0fde08	0.035123855
17	0x3d8a3b48	0.06749588
18	0xbc73275e	-0.014840929
19	0x3d8a6ea3	0.067593835
20	0xbd8bbb42	-0.06822826
21	0xbca2819b	-0.019837191
22	0xbdaaf630	-0.08347738
23	0xbd010f5b	-0.031508785
24	0x3d3c3318	0.045947164
25	0xbde6b638	-0.11265224
26	0xbbe67fc6	-0.0070342747
27	0x3d7f113c	0.062272295
28	0xbbe4a0f0	-0.006977193
29	0xbc94feed	-0.018187964
30	0xbc8c201d	-0.017105157
31	0x3caa9658	0.020823643
32	0x3af80e46	0.0018925152
33	0x3d271a72	0.040796705
34	0xbd028ef2	-0.031874605
35	0x3b5f4190	0.0034066178
36	0xbd88a077	-0.06671231
37	0xbc9cf1ad	-0.019158209
38	0x3d8039d9	0.062610336
39	0xbd85817c	-0.06518838
40	0x3d1d7647	0.038442876
41	0x3d47ce8b	0.04878096
42	0x3db524f4	0.08844939
43	0x3d1a00c1	0.037598375
44	0x3d5efaa7	0.05443826
45	0xbcca4dd4	-0.024695314
46	0xbd266e19	-0.04063234
47	0x3ceed504	0.029154308
48	0xbbc492d1	-0.005998947
49	0xbd26235e	-0.040561073
50	0x3c996b97	0.01872806
51	0xbd5829fd	-0.05277442
52	0x3d3f524b	0.04670934
53	0x3ce845de	0.028353628
54	0xbd0089e9	-0.03138152
55	0x3c2f3db3	0.010695863
56	0xbbe49570	-0.006975822
57	0xba814efc	-0.0009865458
58	0x3dad2de8	0.084560215
59	0xbd286745	-0.04111411
60	0x3cc3b969	0.023892121
61	0xbd9d609b	-0.07684442
62	0x3b896845	0.004193338
63	0x3c5962c9	0.013268181
64	0xbcce4afd	-0.025182242
65	0x3c2bf393	0.010495084
66	0xbdf215d5	-0.118205704
67	0xbb46dfcb	-0.0030345793
68	0xbd55d536	-0.052205287
69	0x3d01f1a8	0.031724602
70	0x3c9dd52b	0.019266685
71	0xbce84ccf	-0.028356938
72	0x3ccbd4a4	0.024881668
73	0x3d52a75f	0.05142915
74	0x3a164c53	0.0005733419
75	0xbd24d8ef	-0.040245946
76	0xbc9147ba	-0.017734397
77	0xbcfe5a3b	-0.031048885
78	0xbc61a1d2	-0.013771491
79	0x3d669fca	0.05630473
80	0xbcfe1215	-0.031014482
81	0xbdeb8b2a	-0.11501153
82	0xbca03abc	-0.019559257
83	0x3d2fc715	0.04291447
84	0xbd94fd5c	-0.07274887
85	0x3b539c80	0.0032289326
86	0x3d1b59af	0.037927326
87	0xbb30e2d8	-0.0026990678
88	0xbd39ac5f	-0.0453304
89	0xbdb24b41	-0.0870576
90	0xbc757550	-0.014981583
91	0xbd00b304	-0.031420723
92	0x3c815db9	0.01579176
93	0xbd848652	-0.06470932
94	0xbdaa1545	-0.08304838
95	0xbd6cd88e	-0.05782371
96	0xbb974f44	-0.0046176035
97	0x3bae5c8d	0.0053210915
98	0xbd80b384	-0.0628424
99	0xbbe45067	-0.0069675925
100	0x3d4c8aca	0.049937047
101	0xbdad1f77	-0.08453267
102	0xbd051cc0	-0.03249812
103	0xbd02e86b	-0.031959932
104	0xbc2c3a1b	-0.0105119
105	0x3d00d2e7	0.031451132
106	0x3cf80e94	0.030280389
107	0xbd290950	-0.041268647
108	0xbd70055c	-0.05859886
109	0xbd4a94a3	-0.049458157
110	0x3ca098de	0.019604143
111	0xbdf38514	-0.11890617
112	0xbbce7801	-0.0063009267
113	0xbcaa3160	-0.020775497
114	0xbac17888	-0.0014760653
115	0xbcb1fe15	-0.021727601
116	0x3d5fd743	0.05464865
117	0x3d4b16a4	0.04958214
118	0x3b1f97a4	0.002435186
119	0x3c16d719	0.009206557
120	0xbc1341c7	-0.0089878505
121	0x3ce12cb0	0.027487129
122	0x3c697538	0.0142491385
123	0x3d351a93	0.044214796
124	0x3d6b6be3	0.057475936
125	0xbc1b4b89	-0.009478458
126	0xbd396525	-0.045262475
127	0x3d36e517	0.04465207
128	0x3cb8d8e2	0.022564355
129	0xbdb88244	-0.09009221
130	0xbd56a8bb	-0.052407008
131	0x3cfb1166	0.030647945
132	0xbd722545	-0.059117574
133	0xbd316669	-0.043310557
134	0x3d57babc	0.05266832
135	0xbbc2d28a	-0.0059455084
136	0x3c8e5924	0.01737649
137	0x3da9b3aa	0.08286221
138	0xbced0078	-0.028930888
139	0xbbf395a7	-0.0074336114
140	0xbc86c089	-0.01644923
141	0x3d6b136d	0.057391573
142	0x3d5c0f22	0.05372537
143	0xbc441b10	-0.011969343
144	0xbcfdabb2	-0.03096566
145	0x3c90bd52	0.0176684
146	0x3be74ce2	0.0070587257
147	0x3d3c3d15	0.04595669
148	0xbd2e3ad2	-0.042536564
149	0xbd91b436	-0.07114451
150	0xbc7796a2	-0.015111597
151	0xbc6cec8f	-0.014460697
152	0xbccd728b	-0.025079032
153	0xbcab1d50	-0.020888
154	0x3cd3faa3	0.025876349
155	0xbd326eb6	-0.043562613
156	0x3cceb29e	0.025231656
157	0xbcb52036	-0.022110086
158	0x3cc1ff39	0.02368127
159	0xbcfb2c50	-0.030660778
160	0x3cc30a12	0.023808513
161	0xbcd6c1e4	-0.026215501
162	0xbd91b957	-0.07115429
163	0xbd6ea43b	-0.05826209
164	0xbc5c3332	-0.01343994
165	0x3cd40981	0.025883438
166	0x3c946e5f	0.018119035
167	0xbc7582f6	-0.014984837
168	0x3d18cb1b	0.03730307
169	0x3d7f97fe	0.06240081
170	0x3ba9e019	0.005184185
171	0x3d71ae89	0.05900434
172	0x3cbadd2b	0.02281054
173	0xbd90ac30	-0.07064092
174	0xbd6cd00d	-0.0578156
175	0x3c95e9d8	0.018299982
176	0xbd60d971	-0.05489487
177	0xbd41b72a	-0.04729382
178	0x3d53db6f	0.05172294
179	0xbdc65dd0	-0.09685862
180	0x3c4758df	0.012167185
181	0x3c3e882b	0.011629145
182	0xbdb59c5b	-0.08867713
183	0xbd29dfb8	-0.04147312
184	0xbd410120	-0.047120214
185	0xbd1ed6a4	-0.038778916
186	0xbc377d3f	-0.011199295
187	0x3c9619db	0.018322876
188	0xbc700164	-0.014648769
189	0xbdb33a59	-0.08751363
190	0x3d347252	0.044054337
191	0xbd40ffb0	-0.047118843
192	0xbd3a8a5f	-0.045542117
193	0x3daf6a58	0.08565205
194	0x3dbebca1	0.09313322
195	0x3d8f19a3	0.06987312
196	0x3d198b34	0.03748627
197	0x3db3acf7	0.08773225
198	0xbd66e212	-0.05636794
199	0xbd004c5a	-0.031322815
200	0xbe0ab7d7	-0.13546692
201	0xbd05a5ab	-0.032628696
202	0x3d43fa0c	0.047845885
203	0x3d9e1066	0.077179715
204	0xbe6d5fa7	-0.2318102
205	0x3c7e1a47	0.015509195
206	0x3c3dd075	0.011585345
207	0xbd1994a1	-0.03749526
208	0xbd5130a3	-0.051071774
209	0xbda76400	-0.0817337
210	0x3c42e317	0.011894963
211	0xbcfac8e2	-0.030613367
212	0xbd90fbd6	-0.07079284
213	0x3ddfc059	0.10925359
214	0x3da40010	0.080078244
215	0x3b19b464	0.0023453468
216	0xbeb21b3f	-0.34786412
217	0xbe1b0283	-0.15137677
218	0x3c9723e7	0.018449737
219	0xbda47d8e	-0.0803176
220	0xbd9c09ea	-0.076190785
221	0xbe4eb6bb	-0.20186894
222	0xbc9fc781	-0.01950431
223	0xbabd961c	-0.0014464292
224	0x3d886833	0.066604994
225	0xbe758b03	-0.2397881
226	0xba85e1ce	-0.001021439
227	0xbe1023ee	-0.14076206
228	0x3d61fb80	0.05517149
229	0xbd5f1270	-0.054460943
230	0x3e34167f	0.17586707
231	0xbdae9e22	-0.08526255
232	0xbcee2aee	-0.029073205
233	0xbafd9554	-0.0019346871
234	0xbdc17957	-0.09446972
235	0xbddd05c3	-0.107921146
236	0xbd4e4ae5	-0.050364394
237	0x3d4cb814	0.049980238
238	0xbd035d0b	-0.032071155
239	0xbe3844bf	-0.17994975
240	0x3d188373	0.037234735
241	0xbde47f95	-0.11157147
242	0x3defc038	0.11706585
243	0x3d09bd49	0.033627782
244	0x3d7dfd72	0.062009282
245	0xbe5b807a	-0.21435729
246	0xbe06cb7f	-0.13163565
247	0x3d21f4b0	0.039539993
248	0x3c00bb16	0.007857105
249	0xbd21d7de	-0.039512508
250	0xbd489847	-0.048973348
251	0xbbd943c8	-0.0066303946
252	0x3cb9f65d	0.022700483
253	0x3d169b10	0.036768973
254	0xbcfb0f8e	-0.030647065
255	0xbe3efcff	-0.18651198
