examples/single_chip/lcd_cam_loopback/components/esp-face/tutorial/weights/conv2d_kernel.npy (npy, 3328 bytes, 1 tensors)

array f4 [5, 5, 1, 32]
0	0xbdf32969	-0.11873133
1	0x3d588c78	0.052868336
2	0xbd9a4adf	-0.07533812
3	0x3d539de1	0.051664237
4	0xbda4d6cd	-0.080487825
5	0xbcd41d76	-0.025892954
6	0x3d9e7a9b	0.07738229
7	0xbd0c351d	-0.03423034
8	0x3d1cf331	0.038317863
9	0xbbda5016	-0.006662379
10	0xbe13c0c4	-0.14429003
11	0xbd1ccc51	-0.03828079
12	0x3d8e9d48	0.06963593
13	0x3d0b76ad	0.034048725
14	0xbd73f2e3	-0.059557807
15	0xbd8ca14c	-0.068667024
16	0x3ccc6dae	0.024954643
17	0xbe193ca7	-0.14964543
18	0xbe0dd9ab	-0.13852565
19	0x3d4056d0	0.04695779
20	0x3d2a898a	0.041635074
21	0xbcde000d	-0.027099634
22	0x3d99fd7f	0.07519054
23	0x3d55bf0c	0.05218415
24	0x3dee5489	0.116372176
25	0xbce3f742	-0.027827863
26	0xbd655ae0	-0.05599487
27	0x3cf748bf	0.030186055
28	0xbcd56377	-0.026048405
29	0x3e27a8ce	0.16372988
30	0xbda41607	-0.08012014
31	0x3d64f9a9	0.055902157
32	0xbc870a39	-0.016484367
33	0x3d8ba374	0.068182856
34	0xbe0a88e7	-0.13528787
35	0x3d88007c	0.066407174
36	0xbe101d13	-0.14073591
37	0xbcdb08c0	-0.02673757
38	0xbe04da60	-0.12973928
39	0xbca2f506	-0.019892227
40	0xbdb3a8e0	-0.08772445
41	0x3db5281d	0.088455416
42	0xbd9cce8e	-0.07656585
43	0xbda93254	-0.082615525
44	0x3dfb63c4	0.12274888
45	0x3dea7fc6	0.11450152
46	0x3dea14d8	0.11429757
47	0xbd63ddda	-0.055631496
48	0xbc55f0f2	-0.013057934
49	0xbe3d04ee	-0.18458912
50	0xbd24e059	-0.040253017
51	0x3e12e174	0.14343816
52	0xbc323679	-0.010877245
53	0x3d1f6a37	0.038919654
54	0x3a432ba7	0.00074451644
55	0xbc97d085	-0.018532047
56	0xbda10083	-0.07861426
57	0xbcdfe075	-0.02732871
58	0x3cdbb674	0.026820399
59	0xbc02f385	-0.00799263
60	0x3dbcd127	0.0921958
61	0x3da1c5ee	0.0789908
62	0x3d5cb9b5	0.05388804
63	0x3d5a63ea	0.05331794
64	0x3d542f32	0.05180282
65	0x3b68de40	0.0035532862
66	0xbd86edff	-0.06588363
67	0xbe036273	-0.12830524
68	0xbe041fbc	-0.1290273
69	0x3d656407	0.056003597
70	0xbe17977e	-0.14803883
71	0x3cdb3baf	0.026761858
72	0xbe2c7d23	-0.16844611
73	0x3e0d81c0	0.13819027
74	0xbd95b107	-0.07309156
75	0xbe7e5c9c	-0.24840015
76	0x3d4c4f02	0.049880035
77	0x3d97bb09	0.07408721
78	0x3e212640	0.15737247
79	0x3d36af1d	0.044600595
80	0x3c928aca	0.017888445
81	0xbc72abb6	-0.014811447
82	0xbd346e89	-0.044050727
83	0x3e0839d2	0.13303307
84	0xbdf20e39	-0.11819119
85	0x3cefb6c9	0.029261963
86	0xbe194cb2	-0.14970663
87	0xbd3d7b6c	-0.046260282
88	0x3cf5334b	0.029931685
89	0xbe0abf8c	-0.13549632
90	0xbdadadbc	-0.08480403
91	0x3c4a46c0	0.01234597
92	0x3bf4df78	0.0074729286
93	0x3d6917fa	0.05690763
94	0xbda219fe	-0.07915114
95	0x3d80ebaa	0.06294949
96	0xbe091fce	-0.13391039
97	0x3dabf36c	0.083960384
98	0x3d121190	0.03566128
99	0xbd8f1f9c	-0.06988451
100	0x3da75af4	0.08171645
101	0x3d3725f3	0.044713926
102	0xbd39ca87	-0.04535916
103	0xbd76127e	-0.06007623
104	0xbd7673ce	-0.060169034
105	0x3e41067c	0.1885013
106	0x3da632b8	0.081151426
107	0xbe31ada7	-0.173514
108	0x3d8e3f98	0.06945723
109	0x3daeb35e	0.08530305
110	0x3e0990f7	0.13434206
111	0x3d82c940	0.06386042
112	0xbd48649e	-0.04892408
113	0x3d9dde4d	0.07708416
114	0x3daa5649	0.08317239
115	0x3c45ba5a	0.012068355
116	0xbe05ae9f	-0.13054894
117	0x3db03c9e	0.08605312
118	0xbd88d44f	-0.0668112
119	0x3d8aeb6d	0.06783185
120	0x3e01068a	0.1260015
121	0x3bdebb08	0.006797198
122	0xbe45569a	-0.19271317
123	0x3e25ad7a	0.16179457
124	0x3ca4eaa3	0.020131415
125	0x3cdc6995	0.026905814
126	0xbddde15c	-0.108339995
127	0xbde5831c	-0.11206648
128	0x3d59cbe1	0.05317295
129	0xbd64ba23	-0.055841576
130	0xbd238275	-0.039919335
131	0xbd58e872	-0.052956052
132	0xbb997e49	-0.004684244
133	0x3d34710e	0.04405313
134	0x3dc2b2a3	0.095067285
135	0xbdc1b9aa	-0.09459241
136	0xbcc07bf4	-0.023496605
137	0x3dba0023	0.09082057
138	0x3d36d476	0.044636212
139	0x3b860238	0.00408962
140	0x3e3b544a	0.18293872
141	0x3d23ccec	0.03999035
142	0x3df7b52d	0.120951034
143	0xbce91a6b	-0.02845498
144	0xbdb4932f	-0.088171355
145	0x3d9f3652	0.07774033
146	0x3d63a170	0.05557388
147	0xbd42eae4	-0.04758729
148	0xbde7dcc4	-0.113214046
149	0xbcefbd6f	-0.029265134
150	0x3d84a5e1	0.064769514
151	0x3dae3e4c	0.08507976
152	0xbd9ee5d0	-0.07758677
153	0x3dbd755e	0.09250902
154	0xbda633ae	-0.08115326
155	0x3e0462b7	0.12928282
156	0xbbab7a91	-0.005233117
157	0xbda7045d	-0.08155129
158	0xbc863ba6	-0.016385864
159	0xbe07e792	-0.13271931
160	0xbda06b0b	-0.07832917
161	0x3ca817dc	0.02051919
162	0xbd076d73	-0.033063363
163	0x3e178aeb	0.14799087
164	0x3db0f1ea	0.086398914
165	0x3ce59823	0.028026646
166	0x3cad6770	0.021167487
167	0xbd8b9b60	-0.06816745
168	0xbdbdb1f1	-0.09262455
169	0x3d6dddcb	0.058072846
170	0xbdd7f450	-0.10544646
171	0x3d2dc15d	0.042420734
172	0xbce451ad	-0.027870977
173	0xbb0060e1	-0.0019588994
174	0x3d22928d	0.039690543
175	0xbcf9ded5	-0.030501762
176	0xbd2ae384	-0.041720882
177	0x3d459968	0.048242003
178	0xbd9f5cbf	-0.07781362
179	0xbdc87068	-0.09787065
180	0xbcd5eabc	-0.026112907
181	0x3d89dd05	0.06731609
182	0xbe0578d4	-0.13034374
183	0xbcdf20d3	-0.027237331
184	0xbcd9bc26	-0.026578974
185	0x3d3079ef	0.043085035
186	0x3d944950	0.07240546
187	0x3d514cd2	0.051098652
188	0xbc92521c	-0.017861418
189	0x3d97d4da	0.07413645
190	0x3d740b19	0.059580896
191	0xbd7d06b0	-0.061773956
192	0x3daf614a	0.08563478
193	0x3d941dc6	0.07232241
194	0xbcfc7858	-0.030819103
195	0xbbcac0db	-0.006187541
196	0x3e053cc0	0.13011456
197	0xbd1f5716	-0.03890141
198	0xbe27422f	-0.16333841
199	0xbc4fc8cb	-0.01268215
200	0xbe8c2367	-0.2737076
201	0xbd46fc41	-0.04858041
202	0xbe261d51	-0.16222121
203	0xbdcf2fb8	-0.101165235
204	0xbd8bb77c	-0.06822106
205	0x3ba470a1	0.005018309
206	0x3dd093c0	0.10184431
207	0xbd771ab3	-0.060328197
208	0xbdeeae59	-0.11654348
209	0x3c50f570	0.012753829
210	0xbd42c16e	-0.04754775
211	0x3c892a75	0.016743878
212	0xbdeb99e7	-0.11503964
213	0x3d85879b	0.06520005
214	0xbe8faa5c	-0.2805966
215	0x3a236fba	0.0006234605
216	0xbdf1e3cc	-0.11811027
217	0xbe12bdb6	-0.14330181
218	0x3dd77ef4	0.10522261
219	0x3e1cffa5	0.15331896
220	0xbde4e425	-0.111763276
221	0x3df8af7a	0.121428445
222	0x3da96dfb	0.0827293
223	0xbe358e3b	-0.17730038
224	0x3d0f3987	0.03496697
225	0xbd3b0cdb	-0.045666557
226	0x3dcfc840	0.101456165
227	0xbda34e4f	-0.079739206
228	0x3e144d12	0.14482525
229	0xbd77c5e9	-0.060491476
230	0xbe48edba	-0.19621935
231	0x3e25e05e	0.1619887
232	0xbe042ec9	-0.12908472
233	0xbbe13606	-0.006872895
234	0xbe0fb3fa	-0.140335
235	0xbd12d21e	-0.035844915
236	0xbd3ae95a	-0.045632698
237	0x3cd5baf9	0.026090132
238	0x3da4fa04	0.08055499
239	0x3a189160	0.00058200024
240	0xbc133b31	-0.00898628
241	0x3e094667	0.13405763
242	0x3d6ac9d3	0.05732138
243	0x3e351e5f	0.17687367
244	0xbdf157cc	-0.11784324
245	0x3db9c47a	0.09070678
246	0xbdbd64a0	-0.09247708
247	0x3d8df0be	0.069306836
248	0x3d7b7ca7	0.061398175
249	0xbe00f71a	-0.12594262
250	0x3d9542f0	0.07288158
251	0x3dc7c13e	0.09753655
252	0x3ad14ea8	0.0015968876
253	0x3d798801	0.06092072
254	0xbd82c4d5	-0.06385199
255	0xbe600b07	-0.21879207
