examples/single_chip/lcd_cam_loopback/components/esp-face/tutorial/weights/dense_kernel.npy (npy, 295040 bytes, 1 tensors)

array f4 [576, 128]
000000 f6 e4 ed 3c 8e cb 42 bd ac d6 a4 bd f3 a4 19 bd
       0.029039841 -0.047557406 -0.08048758 -0.037510823
000010 55 11 4c 3d b7 24 7d 3d cb 39 c7 bb a5 1b 17 3e
       0.049821217 0.061802592 -0.0060798875 0.1475664
000020 33 51 95 bd b5 68 fb bd fe 65 33 3d 6c 88 cc 3d
       -0.07290878 -0.12275831 0.04379844 0.09986958
000030 eb d6 05 3d 67 76 a4 bd cd 01 e7 3c 6f 32 94 3d
       0.032675665 -0.08030396 0.0281991 0.07236182
000040 af ae 27 bd 9b ff d4 3d e5 73 08 3d 44 b0 d5 3d
       -0.040938076 0.104003154 0.03331365 0.104340106
000050 e8 31 8d bc 4a 89 f3 3c 8e 66 4a 3d 37 9c ad bd
       -0.017235711 0.02972855 0.04941421 -0.08477061
000060 c7 bd 00 bd 65 69 8a bd dc b4 53 bc ae e9 e3 3c
       -0.031430986 -0.06758384 -0.012921538 0.027821388
000070 9d b0 b6 3b b7 cc 27 3e c3 b2 aa bc 47 0f 70 3d
       0.005575253 0.16386686 -0.020837193 0.05860832
000080 17 1a 65 3d 67 61 05 be e4 18 37 bd fd 66 54 bd
       0.055933084 -0.13025437 -0.044701472 -0.05185603
000090 db 74 8e 3d 8d 74 bf bc 0b 6a f7 3d 9b 2b 71 bc
       0.06955882 -0.023371005 0.12080773 -0.014719869
0000a0 67 d0 38 bd d6 fe f7 3c 8b b3 87 bd 52 76 0a bd
       -0.045120623 0.030272882 -0.06626042 -0.033804245
0000b0 ea 73 ee 3d 56 6a aa 3c 09 a5 35 bd 78 cf 5b 3d
       0.116432026 0.020802658 -0.044346843 0.053664654
0000c0 b2 fb 16 bb 1b 27 94 3b 91 b5 3f 3d 8e 75 b9 bd
       -0.0023038206 0.0045212633 0.046804015 -0.09055625
0000d0 f9 a4 fc bb 1d 23 d4 3c fc 0e 32 3d 9b 21 4b 3c
       -0.007710096 0.02589565 0.04347132 0.012398149
0000e0 e9 0c cb 3c 8e 49 22 bd 95 b0 fe 3d 18 a7 14 3d
       0.02478643 -0.03962093 0.12436024 0.036292166
0000f0 12 8b e3 bd 57 9d 34 bd 7f 65 88 bd e0 3a 14 be
       -0.1111051 -0.044095363 -0.06659984 -0.14475584
000100 9e dc 05 3c b4 20 bc 3d 8c ca f3 bc ed 77 a4 bb
       0.008170275 0.09185925 -0.029759668 -0.005019179
000110 1b a5 d6 3d de 53 b3 bb 66 fb 22 bc 03 04 54 3c
       0.1048071 -0.005472644 -0.009947633 0.01294041
000120 43 66 06 3d 9d a9 0c 3d 00 86 c3 3c 2f 89 93 bd
       0.032812368 0.034341443 0.023867607 -0.072039
000130 47 42 3e 3d f3 16 0f 3d 9d 5c 38 bd 54 14 3c bd
       0.046449926 0.034933995 -0.045010198 -0.045917824
000140 e1 01 47 bd ee 80 cc bc d2 1c 51 3d e4 15 05 bd
       -0.048585776 -0.024963822 0.051052876 -0.03249158
000150 35 6d 78 3d c6 a3 9d 3d f3 a7 64 bd 81 af 0e be
       0.060651023 0.07697253 -0.05582423 -0.13934137
000160 7c 36 40 bb 82 be 4c 3d 9d 00 ad bc d2 66 8d 3b
       -0.002932935 0.04998637 -0.021118456 0.0043152357
000170 83 c7 0e 3c dc c0 f7 3c 49 f1 8b bd 2e 92 8d 3d
       0.0087145595 0.03024333 -0.06833131 0.06912647
000180 87 fe 19 3c fd 57 4d 3d 9e 67 16 3d 0c 74 eb bc
       0.009399063 0.05013274 0.03671991 -0.028741859
000190 e4 4f 40 3d 01 8d 2b bd c5 9e a2 3c f6 53 17 3c
       0.04695119 -0.04188252 0.019851098 0.009236326
0001a0 87 a9 a9 bd 34 6e c4 bb 23 13 c3 3b 0b 68 e5 bc
       -0.08284288 -0.0059945825 0.005953209 -0.028003713
0001b0 3c 4b 5d bc 4d 6b 82 bd eb 49 2a bb da 8f b3 3c
       -0.013506707 -0.06368122 -0.0025984 0.02191918
0001c0 42 3d ba 3d f4 12 92 3c 3a ca 53 bd d4 c9 e7 3d
       0.09093715 0.017831303 -0.05170653 0.113177925
0001d0 c0 8b 6c bc 41 06 89 3d 49 ef da 3c 51 a3 6e 3c
       -0.014437616 0.06690646 0.026725428 0.014565305
0001e0 73 c1 85 3d 76 66 60 ba 6b fe fc bb d1 a9 31 3d
       0.06531038 -0.000856019 -0.0077207587 0.04337484
0001f0 0c 3f 44 bc c1 2a f6 bd a9 5c c6 3d 13 eb b2 3c
       -0.011977922 -0.120198734 0.09685642 0.021840608
000200 b0 24 55 3d 3f 90 d8 bd 0f e7 08 3c 97 62 ef 3d
       0.05203694 -0.10574388 0.00835587 0.116887264
000210 02 8d a0 bd 54 39 3d bd ad 40 23 3d 8e 60 16 3e
       -0.07839395 -0.04619725 0.0398566 0.1468527
000220 4a f6 47 bd f2 fd c4 bc c0 44 bd 3a db 01 30 3c
       -0.048818864 -0.024046872 0.0014440045 0.01074263
000230 be 1f f5 bd c2 01 1e bb 4e 4d 72 bd ac 79 70 bc
       -0.11968945 -0.0024109934 -0.059155755 -0.014677446
000240 2a 8f 87 3c 0c 90 9f bc 68 b4 26 bd 55 2c d2 3d
       0.016547758 -0.019477867 -0.040699393 0.10262362
000250 f8 60 a3 3d fd 43 30 3d ad 6f b5 3d 83 2f 89 3d
       0.0797748 0.04303359 0.08859191 0.06698515
000260 42 33 e6 bd 4f 6a 61 bd d4 cd 0c bd 25 46 82 3d
       -0.112402454 -0.055033024 -0.03437598 0.06361035
000270 4e 80 1d 3d 02 3e 1e be 33 57 bc 3c 7d 22 45 3e
       0.03845244 -0.15453342 0.022990799 0.19251437
000280 cf 97 86 3d 9b 86 7e 3d d0 4a 57 bd e7 56 96 3d
       0.06571924 0.06214009 -0.05256158 0.07340794
000290 67 b9 dc 3d e0 28 0c 3e e1 c3 16 3d e3 a5 ee bc
       0.1077755 0.13687468 0.0368079 -0.029131835
0002a0 33 be fa 3d d4 19 c6 bd 9f 03 7a 3d 1f 9e 00 bd
       0.12243309 -0.09672895 0.06103861 -0.031400796
0002b0 24 b8 cb bc f0 50 0e 3e 43 98 78 bd 1d 54 f8 bc
       -0.024868079 0.13898063 -0.060692083 -0.030313546
0002c0 02 58 f0 3c 45 1a 5e bd 06 17 40 3d 5d 5e 32 3d
       0.02933884 -0.05422427 0.046896957 0.043547023
0002d0 ee d3 d2 3c d3 21 15 be 8d a8 d4 3c eb e9 a0 bd
       0.025735822 -0.14563684 0.025959278 -0.07857116
0002e0 11 b2 d8 bd 13 66 6f bc bc 04 9f 3d aa 4d 0b bd
       -0.105808385 -0.014611739 0.07764575 -0.034009613
0002f0 78 bb 8e bc 47 74 3b 3c f9 fd 0b 3d 69 f2 59 be
       -0.017423376 0.011441297 0.034177754 -0.21283878
000300 4e 8c 2a bd 9b 47 51 3d 82 b5 f1 3d 53 fb ef 3c
       -0.04163771 0.05109368 0.11802198 0.029294645
000310 4c 32 9b 3b 7e ca 1f bd 13 c3 bc bd 4d be 23 bd
       0.0047362205 -0.03901147 -0.09216895 -0.039976407
000320 57 e1 6a bd 9e 19 39 bc 3e 88 95 bd 93 53 09 bd
       -0.057343807 -0.0112976115 -0.07301377 -0.03352697
000330 c4 df 3f be 91 a2 3b bd 03 0d 15 3e 7c 41 d3 bd
       -0.18737704 -0.045809332 0.14555745 -0.103152245
000340 96 0e 64 bd a9 e1 86 bd d9 ac 81 3c 9c 48 b5 3d
       -0.055677973 -0.0658601 0.01582949 0.0885174
000350 a5 92 a1 3d 98 9a 23 3e e8 fc 23 3c 9e b1 a9 3d
       0.07889298 0.15976942 0.010009028 0.08285831
000360 f4 d2 ad bc 2e 21 07 be 6c 4a 71 bc ce 13 8b bd
       -0.021218754 -0.13196251 -0.014727216 -0.06790887
000370 71 6c 15 bd 63 4e 55 bd 3f 6d 9c 3d c1 3b 64 3d
       -0.03648037 -0.05207671 0.076380245 0.05572105
000380 58 5f 08 bd 14 d3 d7 3d dc b1 b1 bc 27 08 a7 3d
       -0.033294052 0.10538307 -0.021691255 0.08155852
000390 47 b0 91 bd 44 f2 58 ba 93 70 7f 3d 84 03 35 bc
       -0.071137 -0.00082758465 0.06236322 -0.0110482015
0003a0 b6 31 c6 3d 21 e3 0d be 56 6e c9 bc 62 b1 35 3d
       0.0967745 -0.13856174 -0.024588745 0.04435862
0003b0 0e af 9f bd 4a 8a a5 bd 3e 8a 8d 3d 0a ea 1b 3d
       -0.07797061 -0.08083017 0.06911133 0.038064994
0003c0 0b e7 11 bd 02 8e 16 3d 2d 3a 1a be 17 2c a8 3d
       -0.03562073 0.036756523 -0.15061255 0.082115345
0003d0 4a 81 fb 3d 06 aa 15 be 70 09 f0 bd 3c 66 bd bd
       0.12280519 -0.1461564 -0.1172055 -0.09248015
0003e0 ca 0a 6d 3d 62 4f c9 3d 3d 87 83 bd 04 7d eb 3a
       0.057871617 0.09829594 -0.06422279 0.0017966335
0003f0 9d 06 bc 38 1d fa c2 bd 22 5b 88 3d 0c 4b 94 bd
       8.9657704e-05 -0.095203616 0.06658007 -0.072408766
