examples/single_chip/lcd_cam_loopback/components/esp-face/tutorial/weights/dense_1_kernel.npy (npy, 5248 bytes, 1 tensors)

array f4 [128, 10]
-0.25720352 0.15300901 0.07140882 -0.13160652 0.022000879 -0.25581598 -0.010694169 0.048801925
-0.2053404 0.08365524 0.17250527 -0.29396582 -0.3238879 -0.043233484 0.061164197 0.0319969
0.095453516 -0.013550692 -0.2558322 0.088213526 -0.012322368 0.04962516 0.13124447 -0.12928598
0.05571748 0.1352718 0.12788552 0.059919346 -0.15325472 -0.08729095 -0.118399516 -0.0844814
0.045934778 -0.11956912 -0.095787935 -0.13035427 -0.38799107 0.2159416 0.038110882 0.032336034
0.12938973 -0.12737232 -0.12067084 0.12893502 0.03433431 0.20686646 0.15085188 -0.18512264
0.008973245 0.03860907 -0.020057077 -0.16958833 -0.051368807 0.063493036 -0.039933056 -0.044468377
0.103063434 0.04076632 0.11644725 -0.12631455 -0.252136 0.03261873 0.06499314 0.01979419
0.2122216 -0.000630417 -0.267184 0.06803541 -0.17801094 0.1109791 -0.09670746 -0.20634288
-0.28375146 0.010672867 0.2255763 -0.16552643 -0.1170408 0.20870171 -0.020283664 -0.06363069
0.028287312 0.07821083 -0.013134428 0.012199898 -0.041797426 -0.012410573 -0.081266955 0.17599404
0.07744474 0.035526212 -0.2835668 0.15401703 0.002301532 0.2387923 -0.10087623 -0.08216735
0.12078138 0.05152034 -0.27312276 -0.24133867 -0.08677069 0.1178471 -0.2758951 0.19165139
-0.08365994 0.11775978 0.049689088 -0.045519218 0.12843473 0.13659133 -0.040416677 0.071953006
-0.09593933 0.09890261 0.15927829 -0.008394629 -0.16735996 0.16328101 0.09640877 -0.06331479
0.16803333 0.09916675 0.11449583 -0.1350878 -0.17989661 -0.0631136 -0.12549807 0.18753907
0.1781715 -0.036305476 0.19117466 0.131919 0.14237773 0.15095529 -0.12769641 -0.12833923
-0.30627632 0.1368341 0.025045376 0.18749505 0.064037405 -0.069392264 0.18439496 0.1329179
0.043211635 0.063429184 -0.2067622 -0.17062071 -0.08504953 -0.16989076 -0.1427446 -0.14200379
-0.048384648 0.024387022 0.10952892 0.08184335 0.08189375 0.050985668 -0.0899638 0.20183705
0.00492649 0.08775992 0.13820568 0.060709585 -0.1978137 0.12760928 -0.14689182 -0.106416546
-0.018823251 0.10597086 0.0037518893 0.1289807 -0.22678563 -0.06299981 -0.15389268 0.07870819
0.18190098 -0.24747542 0.13604325 -0.21350017 0.06599823 0.13841987 -0.11556352 0.15126742
-0.2935834 0.14575632 0.15360433 0.13124192 0.10576848 -0.04239143 -0.14781448 0.15748486
-0.024092983 -0.11089845 -0.2654767 -0.029365351 -0.18629782 -0.18329178 -0.07940721 -0.10283223
0.16813383 0.00895706 0.004088134 -0.19221123 -0.06384076 -0.14796863 0.1797809 -0.005212358
0.06890221 -0.03580221 -0.19623993 0.015675407 0.0903802 0.040077418 -0.0326314 0.14996791
-0.13804251 0.104031295 0.040899195 -0.27912036 -0.116582274 -0.2916921 -0.07505095 -0.061892297
0.08795206 0.22675924 -0.31292647 0.024344014 -0.067395344 0.13653927 -0.16238901 0.14588214
0.1913011 -0.17376953 0.1361081 0.045910876 -0.1395006 -0.045496587 0.06643877 0.08215331
-0.1448491 -0.17625742 -0.072178505 0.14459471 -0.2092776 0.004956708 0.005083337 -0.017438153
-0.04731998 -0.09405858 0.037442356 0.16564703 -0.22792889 -0.095376834 -0.2118294 0.06289599
00000000: 2eb0 83be 65ae 1c3e ca3e 923d dcc3 06be
00000010: 303b b43c 50fa 82be 9936 2fbc 87e4 473d
00000020: c144 52be 7053 ab3d 39a5 303e b082 96be
00000030: a3d4 a5be 9815 31bd 4f87 7a3d 2e0f 033d
00000040: 227d c33d b903 5ebc 70fc 82be 4ba9 b43d
00000050: c2e3 49bc c043 4b3d f364 063e 8b63 04be
00000060: 0338 643d b184 0a3e 6cf4 023e fd6d 753d
00000070: ceee 1cbe 99c5 b2bd 727b f2bd 9604 adbd
00000080: 1b26 3c3d a8e0 f4bd 772c c4bd 977b 05be
00000090: c4a6 c6be cb1f 5d3e 281a 1c3d ca72 043d
000000a0: be7e 043e e46d 02be 4622 f7bd 8b07 043e
000000b0: 22a2 0c3d cdd4 533e ea78 1a3e ca90 3dbe
000000c0: 8404 133c 8b24 1e3d bd4e a4bc 90a8 2dbe
000000d0: 1968 52bd a308 823d d890 23bd 7924 36bd
000000e0: ec12 d33d 96fa 263d e57b ee3d 9a58 01be
000000f0: f817 81be 389b 053d 201b 853d 6d27 a23c
00000100: 9e50 593e 9242 25ba 57cc 88be 2656 8b3d
00000110: 8048 36be 0349 e33d 900e c6bd 8c4b 53be
00000120: df47 91be 40dd 2e3c 79fd 663e c37f 29be
00000130: 16b3 efbd e7b5 553e ed29 a6bc cf50 82bd
00000140: cbba e73c 002d a03d c931 57bc 15e2 473c
00000150: c733 2bbd b755 4bbc 4a6f a6bd c837 343e
00000160: 599b 9e3d ef83 113d ab2f 91be a4b6 1d3e
00000170: 4dd5 163b f885 743e 3298 cebd 5b47 a8bd
00000180: 3a5c f73d fe06 533d bfd6 8bbe 7c21 77be
00000190: d5b4 b1bd d259 f13d 1f42 8dbe 4340 443e
000001a0: e755 abbd 0a2c f13d c986 4b3d 5c72 3abd
000001b0: 6584 033e 99de 0b3e f58b 25bd 195c 933d
000001c0: d77b c4bd 748d ca3d d919 233e a089 09bc
000001d0: 6960 2bbe 2333 273e f671 c53d 2fab 81bd
000001e0: ee10 2c3e f017 cb3d ca7c ea3d 7554 0abe
000001f0: d136 38be b441 81bd 9182 00be 3e0a 403e
00000200: 9772 363e 0db5 14bd 4ac3 433e c615 073e
00000210: 78cb 113e 0694 1a3e d9c2 02be 5c6b 03be
00000220: 40d0 9cbe 3d1e 0c3e f62b cd3c b4fe 3f3e
00000230: 0b26 833d 881d 8ebd 08d2 3c3e a11b 083e
00000240: affe 303d 29e7 813d 78b9 53be 32b7 2ebe
00000250: 732e aebd d8f7 2dbe a42b 12be 7169 11be
00000260: fb2e 46bd 4bc7 c73c b350 e03d 7c9d a73d
00000270: e9b7 a73d 59d6 503d f13e b8bd 5fae 4e3e
00000280: 656e a13b 79bb b33d ca85 0d3e 9daa 783d
00000290: ad8f 4abe 02ac 023e cf6a 16be ebf0 d9bd
000002a0: 3833 9abc 4007 d93d 42e2 753b 8413 043e
000002b0: 7e3a 68be 0b06 81bd 0b96 1dbe c231 a13d
000002c0: 4044 3a3e 326a 7dbe ec4e 0b3e ca9f 5abe
000002d0: 142a 873d f0bd 0d3e 91ac ecbd d9e5 1a3e
000002e0: 9050 96be 2541 153e 744a 1d3e 4864 063e
000002f0: 259d d83d a3a2 2dbd ae5c 17be b643 213e
00000300: a65e c5bc ba1e e3bd 90ec 87be 9b8f f0bc
00000310: dbc4 3ebe d7b0 3bbe 3fa0 a2bd b499 d2bd
00000320: 462b 2c3e a2c0 123c c1f5 853b 05d3 44be
00000330: f2be 82bd 1785 17be 7c18 383e 6ecc aabb
00000340: 9a1c 8d3d 57a5 12bd 1ff3 48be b669 803c
00000350: 4119 b93d 3828 243d 81a8 05bd 3091 193e
00000360: 045b 0dbe 5c0e d53d ea85 273d dde8 8ebe
00000370: b0c2 eebd ab58 95be 50b4 99bd c782 7dbd
00000380: 3620 b43d 9333 683e e637 a0be 196d c73c
00000390: 9206 8abd f3d0 0b3e 4e49 26be 2162 153e
000003a0: 70e4 433e a4f0 31be ec5f 0b3e 0b0d 3c3d
000003b0: 3fd9 0ebe a15a 3abd 0d11 883d ff3f a83d
000003c0: 5353 14be d37c 34be 53d2 93bd a310 143e
000003d0: de4c 56be e16b a23b 1f92 a63b 75da 8ebc
000003e0: 98d2 41bd c9a1 c0bd 285d 193d 609f 293e
000003f0: 3166 69be ee54 c3bd cee9 58be 9dcf 803d
