examples/single_chip/lcd_cam_loopback/components/esp-face/tutorial/weights/dense_bias.npy (npy, 640 bytes, 1 tensors)

array f4 [128]
0	0x3ccc443e	0.024934884
1	0xbcf4f259	-0.029900717
2	0xbcc05546	-0.023478162
3	0x3b57dc9b	0.0032937888
4	0xbc95e4cf	-0.018297581
5	0xbb83d662	-0.004023359
6	0x3c1504f5	0.00909542
7	0x3d2bd465	0.041950602
8	0xbc0f6639	-0.008752399
9	0x3cda0e15	0.026618043
10	0x3d29dd31	0.04147071
11	0x3d2772dd	0.040881027
12	0xbcad5eee	-0.02116343
13	0x3c912e2d	0.017722214
14	0xbc8ce934	-0.017201044
15	0xbc07c348	-0.008286305
16	0xbb50d1e6	-0.003186339
17	0x3c933279	0.017968403
18	0x3d15c242	0.03656221
19	0x39196dd1	0.00014632127
20	0xbc6d28c2	-0.014475049
21	0xbb6508e4	-0.0034947926
22	0xbbafff55	-0.005371014
23	0xbd1b1020	-0.037857175
24	0xbc441b25	-0.011969362
25	0xbbbf1f3e	-0.005832582
26	0xba91fc4e	-0.0011137815
27	0xbc6294c6	-0.013829416
28	0xbd07a35b	-0.033114772
29	0xbc2f023b	-0.010681684
30	0xbc3e66ad	-0.0116211595
31	0x3cdaf58a	0.02672841
32	0x3d26a456	0.040684067
33	0x3c841091	0.01612118
34	0x3d0a7a05	0.033807773
35	0xbbd1c745	-0.0064019286
36	0x3bf4bb9f	0.0074686552
37	0x3d422f6a	0.0474085
38	0x3cfb15bc	0.030650012
39	0xbc2d5e76	-0.010581603
40	0x3d1605e5	0.036626715
41	0x3b453bd9	0.0030095486
42	0xbc33fa7f	-0.010985016
43	0xbd0571ca	-0.03257922
44	0x3c4c8df1	0.012485013
45	0x3cf1c875	0.02951453
46	0xbc1fe8ef	-0.009760126
47	0x3d5a1137	0.053239074
48	0xbd459dd0	-0.048246205
49	0xbb84ed8f	-0.0040566395
50	0x3d3bcb1f	0.04584801
51	0xbbdd7e49	-0.006759439
52	0x3d2636c7	0.040579583
53	0x3d008032	0.031372257
54	0x3c0f77d3	0.008756596
55	0xbcdd56d0	-0.027018934
56	0x3a152890	0.0005689943
57	0xbbc1e5b3	-0.005917275
58	0xba7b5244	-0.00095871487
59	0xbbb27ceb	-0.0054470203
60	0xbc73b729	-0.014875212
61	0xbbd3e7c0	-0.0064668357
62	0xbc16815a	-0.009186113
63	0x3c43b14d	0.011944127
64	0xbbeccd71	-0.007226639
65	0x3d35a093	0.04434259
66	0xbd373d65	-0.044736285
67	0x3d4216fc	0.0473852
68	0x3d40e422	0.047092564
69	0x3d41e322	0.04733575
70	0x3cb33ca1	0.021879496
71	0x3cbd2b4a	0.02309193
72	0xbb9aafd8	-0.0047206692
73	0x3cab333e	0.020898458
74	0xbcdf44ca	-0.02725448
75	0xbd1d45c6	-0.03839662
76	0xbc85d502	-0.016336922
77	0x3d50dfe1	0.050994758
78	0x3bb5db70	0.0055498406
79	0xbcf3cc0f	-0.029760389
80	0x3ba54abc	0.0050443094
81	0xbcb228de	-0.021748003
82	0xbd311374	-0.043231443
83	0xbb6bf325	-0.003600308
84	0xbcafdd6b	-0.021467885
85	0x3c51580a	0.012777338
86	0xbbe0c435	-0.006859327
87	0x3c304f7f	0.010761141
88	0xbb07ddd7	-0.0020731592
89	0x3cc9d056	0.024635475
90	0x3cd66b43	0.026174193
91	0x3bd168cb	0.006390666
92	0xbcc3fdde	-0.023924764
93	0xbb6a6156	-0.0035763583
94	0xbcaffdff	-0.02148342
95	0xbb8e085a	-0.0043344917
96	0xbcbd7d4d	-0.023131037
97	0x3d0fb363	0.035083186
98	0xbbbe36a8	-0.0058048554
99	0x3c0713f7	0.008244506
100	0x3ca59166	0.020210933
101	0xbd2abbde	-0.04168307
102	0xbd7d847d	-0.06189393
103	0xbb6cd4fa	-0.0036137686
104	0xbc130ab7	-0.008974723
105	0x3d2fc040	0.042907953
106	0xbcf25bbc	-0.029584758
107	0xbccff5cb	-0.025385758
108	0x3cad6544	0.021166451
109	0xbd505d28	-0.05087009
110	0x3d25662a	0.040380634
111	0xbc28d6f1	-0.010305152
112	0x3c46d1ac	0.012134951
113	0xbba69b37	-0.005084421
114	0xbcb88c99	-0.02252798
115	0xbb2f0d80	-0.0026710927
116	0x3b5b4650	0.0033458658
117	0xbd27549e	-0.04085218
118	0xbd63b674	-0.055593923
119	0x3ad27430	0.0016056355
120	0x3ca7189a	0.020397473
121	0x3cca4324	0.024690218
122	0xbccd4c77	-0.025060875
123	0x3c81995b	0.015820196
124	0xbd0078ac	-0.03136508
125	0x3b19659a	0.0023406507
126	0x3d38f920	0.04515946
127	0x3c2c74ab	0.010525863
