components/esp_facenet/face_detection/coefficients/rnet/model/rnet_l5_category_weight.npy (npy, 1152 bytes, 1 tensors)

array f4 [128, 2]
00000000: 2e0a 4c3e 3df0 3ebe ad01 d3bc 2e50 acbc
00000010: cf3b ea3c 9001 c6bc 3251 cdbd bc5b c03d
00000020: 5307 a43d 3ea0 9bbd 62b9 f23c ecb4 f2bc
00000030: 2a42 863d 6689 7abd f772 1abc d4ce d4bc
00000040: 1969 cebd ee10 d43d 1cfa 35be 469a 2b3e
00000050: a38a 933d 086c 88bd 87ce 503e 267a 42be
00000060: ab92 263e 90d6 1dbe a199 853d 9120 2cbd
00000070: b064 a6bd 3176 a33d 74a1 113d d4db 0fbd
00000080: 8fd2 063e 48c6 fbbd 43dc c8bc 4041 b83c
00000090: ca3c d8bd 5608 cb3d c2b2 68bd 73ed 5f3d
000000a0: 819d 28be ddbc 1a3e 78d8 023c 5359 d9bb
000000b0: 28a2 01be b87f 153e afb2 afbc 5862 433c
000000c0: 54a0 f2bc 9fa4 c63c 8b90 7b3a d1d0 2eba
000000d0: db5c 65bd 6a68 123d f231 86be 82e1 793e
000000e0: aa58 52be 355b 433e ed28 883d f306 7cbd
000000f0: 22b4 723d 8a00 65bd b075 78be f172 673e
00000100: e39a 25bc 38ab 563c 9a7d 84be d8f5 773e
00000110: acc7 473e 9fff 38be c2c2 7c3c b92a 71bc
00000120: 815e 813d 8185 24bd ab1d 86be aa26 7e3e
00000130: 2029 96bd 2799 8a3d b486 36bd 66ee a73c
00000140: 3cf0 aa3d f0f8 c9bd 1e2c 8abe 96c0 6c3e
00000150: c3a7 92ba 1401 d93a d781 c3bd 83eb 043e
00000160: bd8e e2bd f504 d33d 0ead 3b3e ee4d 30be
00000170: 0021 4abd cbb4 433d 6a16 babd 6af0 a33d
00000180: 76f5 113e 8ce4 10be f84b b0bd 84d2 ab3d
00000190: 9fc7 07be 1471 fd3d e914 363e b77f 25be
000001a0: 7ee0 10bc f4ba ab3c bd32 fe3d 4e28 edbd
000001b0: 16f9 0cbe c2a9 ec3d 1cda bc3d b651 acbd
000001c0: ca33 62bd e73a 843d 0275 97bc 5b70 8d3c
000001d0: 82ea f1bd 1acd e13d 0884 c03d 7c08 a7bd
000001e0: a0af c9bd cbc6 cb3d 5063 3b3c 800b 25bc
000001f0: 14ed 91bd d83c 803d b7cc ce3d 6529 aabd
00000200: 66fc 62be 291e 553e f325 e2bd 907b c83d
00000210: 67da 063d 571f 24bd a7b2 893d 3c89 8abd
00000220: 9914 933c 9b27 88bc d16e 1f3d 7470 27bd
00000230: 40d1 d83d d24a d8bd f762 6bbd 5ca9 623d
00000240: 71ba e43c 78b5 9dbc af83 2dbd 7fb4 0b3d
00000250: 052b 063d 7890 c0bc 5b32 8ebd 3729 8d3d
00000260: ff0a 343d 3ac6 563c 949a d5bd cde4 c73d
00000270: 78de 8dbc 6d1a 963c 349b 90be 3a2f 873e
00000280: ca62 2fbe 0417 253e b660 633e ef55 52be
00000290: f54c 09bd 54c0 fc3c ba79 52be 3f7c 463e
000002a0: 3af6 9bbd 4585 903d 85bb 8e3c 229a 23bc
000002b0: 900e 623d 0268 5ebd 8634 c53d 198f b9bd
000002c0: a2a2 ac3d a62a a4bd 5dc7 14bd cdf1 0a3d
000002d0: ad06 81bd 0225 273d 227c 3d3e 2370 31be
000002e0: ad41 ddbd 5481 bf3d 6f29 efbd 0fdc dc3d
000002f0: a9bd d03b c7f7 d1bb f463 323e d7d7 27be
00000300: c052 4b3d 024d 03bd c0f8 2d3e 2864 24be
00000310: 39d1 623e 8b30 53be 7d0b 9dbd 4a81 943d
00000320: fef3 f2bb 5709 053c 2b9f e7bc 2d49 a03c
00000330: 8008 de3c 021e efbc 7e01 a9bb af8f aa3b
00000340: 2948 c6bd 707c b43d 76c6 f63c fc0b a0bc
00000350: a846 103e 5adb 17be 20dd e63d 2f75 c9bd
00000360: c559 773e a2a5 67be 74c9 dbbc 203c d93c
00000370: 955e 3dbc d20a 203c 8356 043e e202 f6bd
00000380: 3d93 0bbe 7802 003e 1dd0 80be 34c1 6d3e
00000390: 0a3d 2fbe 4a20 223e cf50 2c3c 7571 26bc
000003a0: 05c1 d9bd f726 ca3d e030 243d 4639 a2bd
000003b0: 0b8b afbd 52f3 a23d e3f0 073e 4191 00be
000003c0: 37cb d7bd 9e31 c73d 07fb f3bd 518c e63d
000003d0: 79fe eebb c73d 1d3c 5f04 f3bd acb1 c83d
000003e0: ebfe 4ebe 78bf 413e 6ff9 dcbd acbe cb3d
000003f0: 6401 683b c705 673b c42e 81be 38d8 723e
0.19925758 -0.18646331 -0.025757635 -0.021034326 0.028592972 -0.024170667 -0.100252524 0.09392497
0.080092095 -0.07598923 0.029629413 -0.029627286 0.065555885 -0.06116619 -0.009426824 -0.02597753
-0.100786395 0.103547916 -0.1777119 0.1675807 0.07204177 -0.0666123 0.20391284 -0.18991908
0.16266887 -0.1541388 0.06523443 -0.042023245 -0.08124673 0.079815276 0.035554364 -0.035121754
0.13166259 -0.122936785 -0.024519091 0.022492051 -0.105584696 0.09913699 -0.0568111 0.05466981
-0.16466333 0.15111108 0.0079861805 -0.0066329627 -0.12659514 0.14599502 -0.021447508 0.011925302
-0.029617466 0.02424842 0.0009596429 -0.00066686893 -0.055996757 0.03574411 -0.2620998 0.2440243
-0.20541635 0.19077761 0.06648431 -0.061530065 0.05925382 -0.055908717 -0.24263644 0.2260244
-0.010107729 0.013102345 -0.25877076 0.24214876 0.19509763 -0.18066262 0.015427293 -0.0147196585
0.06316853 -0.04016638 -0.2619451 0.24819437 -0.07332063 0.06767493 -0.044562057 0.02049942
0.08346602 -0.09861934 -0.26986784 0.2312034 -0.0011188913 0.0016556107 -0.09546249 0.12980466
-0.110623814 0.1030368 0.18327734 -0.17217228 -0.049347878 0.04777984 -0.090863064 0.0800484
0.14253792 -0.14149684 -0.0860824 0.08389762 -0.13259743 0.123750836 0.17781414 -0.16162
-0.008842586 0.02096317 0.12412021 -0.11579953 -0.13766894 0.11555816 0.092212886 -0.084140226
-0.05522517 0.06456547 -0.01848841 0.01726549 -0.11812307 0.11025448 0.09400183 -0.08155915
-0.09847951 0.09950026 0.011437252 -0.010073543 -0.07125297 0.06261605 0.1009764 -0.08308677
-0.22166595 0.20812286 -0.110423945 0.09789193 0.03292313 -0.04006895 0.06723528 -0.06764457
0.017954158 -0.016620448 0.038924042 -0.040878728 0.10586786 -0.10561146 -0.057467427 0.055337295
0.027920933 -0.01925157 -0.04236191 0.03410768 0.03275587 -0.023506388 -0.06943198 0.06892627
0.0439558 0.013108784 -0.10429874 0.09760437 -0.017317995 0.018323148 -0.2824341 0.26403219
-0.17127529 0.16122061 0.22204861 -0.20540594 -0.033520658 0.030853428 -0.20554247 0.19383334
-0.07615323 0.07056669 0.0174234 -0.009985479 0.05518967 -0.05429841 0.09629159 -0.09060497
0.08429457 -0.08015947 -0.03632294 0.033922005 -0.063001014 0.040806778 0.18504384 -0.17327933
-0.10803542 0.09350839 -0.11677825 0.1078416 0.0063702655 -0.006407711 0.17420942 -0.1639093
0.049639463 -0.032055862 0.16989422 -0.16053832 0.22150125 -0.20623986 -0.07668207 0.072512224
-0.00741434 0.008119903 -0.02827414 0.019566143 0.027103662 -0.029189114 -0.0051576486 0.0052051167
-0.09681732 0.08812797 0.03012393 -0.019536965 0.14089453 -0.1482977 0.11272645 -0.09836804
0.24155338 -0.22621778 -0.026829459 0.026517928 -0.011558195 0.009768205 0.12923627 -0.120122686
-0.13630386 0.12500942 -0.25158778 0.23218232 -0.17113128 0.1583263 0.010517313 -0.010158886
-0.10632519 0.09870713 0.040085673 -0.0792108 -0.08571442 0.07956566 0.13275485 -0.1255541
-0.10536807 0.097262606 -0.11913114 0.11257232 -0.007293519 0.009597248 -0.11866068 0.09799513
-0.20214431 0.18920696 -0.10789763 0.09948477 0.003540122 0.0035251246 -0.25230992 0.23715293
