components/esp_facenet/face_detection/coefficients/rnet/model/rnet_l5_offset_weight.npy (npy, 2176 bytes, 1 tensors)

array f4 [128, 4]
-0.058348108 -0.110345915 -0.015221325 0.034626443 -0.015092015 0.070563085 -0.14960924 0.059472788
-0.006144746 -0.02557049 -0.04507665 -0.021970185 0.023901414 -0.010061885 -0.15512638 0.008528655
-0.10487415 0.11888581 0.07593512 0.07245243 0.039101258 -0.039319355 -0.13417558 0.07662881
-0.048654024 -0.042169657 -0.09437822 -0.010916137 0.0946727 0.038988736 -0.032580316 0.023752892
0.019160032 -0.037164364 0.15791607 0.054962862 0.07111019 -0.022957891 -0.03267437 -0.033522226
-0.013417435 0.0141430665 -0.02165739 -0.00702517 -0.05296182 -0.1005006 0.025676437 0.14512579
-0.052554812 -0.0993613 -0.053369496 -0.008731772 -0.085605465 -0.054283038 0.054882154 -0.0247713
-0.06563651 0.043387413 0.11968901 -0.04182452 0.025082545 -0.1293377 -0.0690073 0.03746012
-0.05150103 -0.09990832 -0.119129635 0.054717135 -0.054405082 -0.09198036 -0.13679855 -0.007516979
0.08097578 0.09459412 -0.010101302 0.17512104 -0.03621184 0.09187487 -0.06455425 -0.1029331
0.07958648 -0.055155154 0.085635886 -0.120920554 0.15605594 0.09586012 -0.02235356 0.10094373
0.05326153 0.10470489 -0.006359049 0.08319471 0.07467167 0.027970945 -0.025116315 -0.061826974
-0.04578765 0.014803046 0.04052494 -0.04894322 -0.00020058548 0.062322095 0.04825496 -0.03833601
-0.13086301 -0.023012206 0.03235232 0.102458216 -0.16643299 -0.025871703 0.070579134 0.13166466
0.044470128 -0.1463037 0.06952461 -0.11079179 -0.024009192 -0.043456577 -0.021913486 -0.0010061311
-0.019921256 -0.11887676 0.1192209 0.01677523 0.102691725 -0.06478293 -0.028094219 0.07249572
0.11798316 0.03492086 0.13141401 -0.07055617 -0.07317042 0.037187945 -0.039371923 0.051016003
-0.012989947 0.0860174 -0.08775424 -0.013775388 0.095625274 0.03185719 -0.011190456 0.07587705
0.05820984 -0.018379405 0.07470016 0.07426551 0.09011678 -0.10687135 -0.05435205 0.08334957
0.07396254 -0.03445288 -0.02141795 0.0125433775 -0.06487589 -0.029794598 0.044267554 -0.13827126
-0.0024952034 -0.03619784 0.124530435 0.038009517 -0.04201551 0.11223984 0.069916844 -0.024002621
0.059075348 0.09434841 0.079113245 -0.007971588 -0.08222216 -0.06192933 0.04209568 0.1323924
0.12539779 -0.010785771 -0.0733508 -0.011935583 0.049491215 0.0037635264 0.1401897 -0.014181904
0.029642142 0.10171184 0.11480696 0.07119362 0.10143886 -0.08471675 0.0004951981 -0.008792493
-0.08423714 0.024327828 -0.08356557 -0.010358987 -0.13031426 -0.04505854 0.08630719 0.16192304
0.04586821 0.033912003 0.07100331 -0.04028511 0.08707883 0.10835558 0.124094345 0.10212859
0.029784555 -0.05826327 0.092570834 0.032386906 0.053356238 0.034193296 0.084171794 0.105631344
0.06082127 0.012028694 0.031608447 0.018372312 -0.012168272 0.16636324 0.06682589 0.108074576
0.17196514 -0.018065706 0.037142783 -0.104635425 0.16842945 0.061421644 0.018296609 -0.10926447
0.09088167 0.054653108 0.17217652 -0.089002036 0.04758017 0.0685002 0.0060249665 0.058925245
0.09682126 -0.07479066 -0.11850596 -0.075870834 -0.03502668 0.06753017 0.06323655 -0.106292136
-0.01929821 -0.077919535 -0.053826615 0.057188664 -0.09162814 -0.079362236 0.012839248 0.1137521
00000000: 6dfe 6ebd 0afd e1bd dd62 79bc 75d4 0d3d
00000010: 8044 77bc 6183 903d 2a33 19be bd99 733d
00000020: de59 c9bb 3479 d1bc 4ba2 38bd d1fa b3bc
00000030: e6cc c33c 9bda 24bc 73d9 1ebe c6bb 0b3c
00000040: 42c8 d6bd 677a f33d df83 9b3d f161 943d
00000050: a428 203d 550d 21bd 5365 09be 91ef 9c3d
00000060: 7149 47bd 17ba 2cbd 5e49 c1bd 99d9 32bc
00000070: c3e3 c13d a7b2 1f3d f072 05bd 6d95 c23c
00000080: 80f5 9c3c a939 18bd c0b4 213e bd20 613d
00000090: 38a2 913d 3012 bcbc 8fd5 05bd 9a4e 09bd
000000a0: cdd4 5bbc 52b8 673c d76a b1bc 6633 e6bb
000000b0: 7eee 58bd 42d3 cdbd 6457 d23c db9b 143e
000000c0: b743 57bd f07d cbbd f999 5abd b50f 0fbc
000000d0: eb51 afbd e457 5ebd 1ccc 603d 2eed cabc
000000e0: 6f6c 86bd 00b7 313d 831f f53d 3050 2bbd
000000f0: e979 cd3c 1a71 04be b353 8dbd c86f 193d
00000100: bef2 52bd bc9c ccbd 3dfa f3bd 131f 603d
00000110: ddd7 5ebd 3360 bcbd eb14 0cbe fd50 f6bb
00000120: a1d6 a53d 90ba c13d ee7f 25bc ee52 333e
00000130: de52 14bd e428 bc3d 0535 84bd 97ce d2bd
00000140: 3dfe a23d 5fea 61bd de61 af3d 32a5 f7bd
00000150: 21cd 1f3e 5052 c43d d01e b7bc 96bb ce3d
00000160: c328 5a3d 846f d63d 925f d0bb fd61 aa3d
00000170: 76ed 983d 5323 e53c bbc0 cdbc 483e 7dbd
00000180: d58b 3bbd 7a88 723c 7bfd 253d b078 48bd
00000190: 4154 52b9 7445 7f3d fea6 453d 3806 1dbd
000001a0: f400 06be 1884 bcbc de83 043d 9dd5 d13d
000001b0: 696d 2abe e5f0 d3bc cb8b 903d 1ad3 063e
000001c0: 4f26 363d a3d0 15be eb62 8e3d cee6 e2bd
000001d0: edae c4bc 86ff 31bd e983 b3bc 28e0 83ba
000001e0: e731 a3bc a975 f3bd 162a f43d 356c 893c
000001f0: 0a50 d23d eaac 84bd d925 e6bc a378 943d
00000200: 28a1 f13d 2d09 0f3d 6591 063e c17f 90bd
00000210: 60da 95bd 6352 183d 7444 21bd 28f6 503d
00000220: c9d3 54bc e429 b03d 7fb8 b3bd 2ab2 61bc
00000230: 2fd7 c33d af7c 023d 2d58 37bc 6d65 9b3d
00000240: 716d 6e3d 6890 96bc 66fc 983d 8418 983d
00000250: 258f b83d 5edf dabd 41a0 5ebd 2eb3 aa3d
00000260: ac79 973d 771e 0dbd b274 afbc bd82 4d3c
00000270: a7dd 84bd cd13 f4bc e551 353d fb96 0dbe
00000280: 9186 23bb 3044 14bd d009 ff3d deaf 1b3d
00000290: 7518 2cbd 00de e53d 9030 8f3d 25a1 c4bc
000002a0: fef8 713d bd39 c13d 2006 a23d 439b 02bc
000002b0: 1864 a8bd 9ca9 7dbd 856c 2c3d e091 073e
000002c0: 4768 003e cdb6 30bc f238 96bd 778d 43bc
000002d0: 4db7 4a3d 7fa5 763b e48d 0f3e 375b 68bc
000002e0: 14d4 f23c 4c4e d03d e91f eb3d f6cd 913d
000002f0: 2dbf cf3d fa7f adbd 2fd0 013a 630e 10bc
00000300: 8684 acbd 274b c73c 6d24 abbd beb8 29bc
00000310: 1a71 05be 4e8f 38bd d3c1 b03d 27cf 253e
00000320: 4ee0 3b3d 50e7 0a3d 2f6a 913d 0002 25bd
00000330: 6356 b23d 88e9 dd3d 2d25 fe3d cb28 d13d
00000340: bdfe f33c 77a5 6ebd c795 bd3d 22a8 043d
00000350: 128c 5a3d 450e 0c3d 4362 ac3d 3f55 d83d
00000360: b91f 793d 0014 453c dc77 013d 8881 963c
00000370: 6f5d 47bc 205b 2a3e 03dc 883d 3456 dd3d
00000380: a117 303e 88fe 93bc 0823 183d 194b d6bd
00000390: c578 2c3e 4395 7b3d c5e2 953c 0dc6 dfbd
000003a0: 2b20 ba3d f0db 5f3d 0b4f 303e b346 b6bd
000003b0: 6de3 423d d549 8c3d 156d c53b 995b 713d
000003c0: 3a4a c63d d82b 99bd 41b3 f2bd 2b62 9bbd
000003d0: 2378 0fbd 424d 8a3d 2a82 813d b1af d9bd
000003e0: 4817 9ebc 4794 9fbd 4c79 5cbd a93e 6a3d
000003f0: 89a7 bbbd ab88 a2bd b65b 523c dcf6 e83d
