components/esp_facenet/coefficients/pnet/model/pnet_l4_offset_cnn_weight.npy (npy, 640 bytes, 1 tensors)

array f4 [1, 1, 32, 4]
-0.045777366 -0.00073919015 0.0056880526 -0.026070027 -0.09697937 -0.00955439 -0.16038407 -0.110264905
0.07247385 0.01665138 -0.04675405 -0.07836123 0.037242644 -0.17943022 -0.11853787 0.060401138
-0.023692824 0.010951965 0.08325518 0.058402564 -0.008061324 -0.05626679 -0.06677902 -0.02312916
-0.02705297 0.038725782 0.010736887 0.056407183 -0.0004250866 0.039934263 -0.02059903 0.03547468
0.023397742 -0.023454867 0.035052206 -0.07542418 0.06430817 0.008668984 -0.14054327 0.08668897
0.11953123 -0.059696477 -0.10084062 0.12408629 0.02391767 0.025705224 0.021867184 0.083806
0.03858802 -0.16117038 -0.11866268 -0.25663167 -0.053410135 0.025451785 -0.19775705 -0.1304636
-0.1211365 0.010710324 0.15099993 0.015307871 0.09583349 0.010822007 0.052663594 0.07261149
0.080970064 -0.13358518 0.033120334 0.081098184 0.10608596 -0.16156669 -0.31529054 -0.0042831567
-0.016414514 0.043435264 -0.07422073 0.005563264 -0.24543238 -0.102035314 -0.027841318 0.08997243
0.08297201 0.015470016 0.07444854 0.041718952 -0.06227953 0.042558994 -0.052991617 -0.056934055
-0.03455012 0.0023916357 -0.018278716 0.05124239 -0.1443788 -0.027560657 -0.017524183 -0.034484684
-0.0757197 0.016353538 0.38885647 -0.010844745 0.0035350246 -0.003756379 -0.19926704 0.015825445
-0.078288436 -0.0060246787 -0.046077337 -0.18916248 0.08677863 -0.04338357 0.007627011 -0.10872431
-0.07212776 0.12662457 0.008885657 -0.11895001 0.2228904 -0.019969746 0.28324634 -0.12585498
0.14537728 -0.02561198 0.152335 0.048434664 0.16683143 0.084116496 -0.06363275 -0.18762574
00000000: 0c81 3bbd 36c6 41ba d862 ba3b cf90 d5bc
00000010: 1f9d c6bd 048a 1cbc b93b 24be 91d2 e1bd
00000020: 2b6d 943d 7a68 883c 2d81 3fbd da7b a0bd
00000030: be8b 183d 8ebc 37be fcc3 f2bd 2f67 773d
00000040: 7417 c2bc df6f 333c b181 aa3d 8737 6f3d
00000050: a513 04bc 0178 66bd 70c3 88bd 5d79 bdbc
00000060: 319e ddbc ed9e 1e3d c5e9 2f3c 380b 673d
00000070: 28de deb9 1c92 233d 4cbf a8bc e64d 113d
00000080: 9fac bf3c 6c24 c0bc e792 0f3d fe77 9abd
00000090: 00b4 833d 5b08 0e3c 93ea 0fbe fd89 b13d
000000a0: cacc f43d 4b84 74bd 8785 cebd f420 fe3d
000000b0: fdee c33c c393 d23c cf22 b33c 7ba2 ab3d
000000c0: 790e 1e3d d909 25be 6b05 f3bd 3a65 83be
000000d0: 96c4 5abd 4380 d03c d380 4abe 4098 05be
000000e0: 6a16 f8bd 5b7a 2f3c ba9f 1a3e ddcd 7a3c
000000f0: 5944 c43d ca4e 313c c8b5 573d 55b5 943d
00000100: a2d3 a53d 8eca 08be 30a9 073d ce16 a63d
00000110: 9943 d93d bd71 25be c36d a1be b959 8cbb
00000120: bb77 86bc 2de9 313d 0a01 98bd 0a4c b63b
00000130: a052 7bbe e4f7 d0bd 7a13 e4bc 7743 b83d
00000140: 3bed a93d f375 7d3c 7a78 983d 7ee1 2a3d
00000150: d218 7fbd 5752 2e3d bd0d 59bd af33 69bd
00000160: 6d84 0dbd fdbc 1c3b 3fbd 95bc 8ae3 513d
00000170: 09d8 13be e3c6 e1bc e08e 8fbc d03f 0dbd
00000180: ee12 9bbd dbf7 853c 3218 c73e 28ae 31bc
00000190: dfab 673b 952d 76bb a90c 4cbe 5da4 813c
000001a0: b055 a0bd ab6a c5bb 97bb 3cbd cfb3 41be
000001b0: ffb8 b13d f8b2 31bd 01ec f93b daaa debd
000001c0: b8b7 93bd dfa9 013e 2695 113c 109c f3bd
000001d0: 623d 643e 9897 a3bc aa05 913e 21e0 00be
000001e0: c8dd 143e 37d0 d1bc b5fd 1b3e 6d63 463d
000001f0: dcd5 2a3e 4545 ac3d e351 82bd f620 40be
