components/esp_facenet/face_detection/coefficients/pnet/model/pnet_l4_landmark_cnn_weight.npy (npy, 1408 bytes, 1 tensors)

array f4 [1, 1, 32, 10]
0	0x3d453476	0.048145734
1	0xbcad5580	-0.021158934
2	0xbd2f90fc	-0.042862877
3	0xbd80969c	-0.062787265
4	0xbd4633d0	-0.048389256
5	0x3c231460	0.009953588
6	0x3d35c2af	0.044375118
7	0x3c3c0913	0.011476773
8	0xbcf3b91a	-0.02975135
9	0x3cfc4f04	0.030799396
10	0x3d9a01ad	0.07519851
11	0xbd76ed03	-0.060284626
12	0xbd61e133	-0.055146407
13	0x3d5494f4	0.051899865
14	0x3e11f897	0.14254986
15	0x3dd454c8	0.10367733
16	0x3e1e36f3	0.15450649
17	0x3d877694	0.06614414
18	0x3e20ab0b	0.15690248
19	0x3e21d113	0.15802412
20	0x3cc04cc2	0.023474101
21	0x3d55104c	0.052017495
22	0x3e4f84db	0.20265524
23	0xbd2ab79d	-0.041679014
24	0x3d44c205	0.048036594
25	0xbd353a19	-0.04424486
26	0xbb393f50	-0.0028266497
27	0xbd6b2f80	-0.057418346
28	0x3dac4ec5	0.084134616
29	0x3dbfb152	0.09359993
30	0x3deb57a3	0.11491325
31	0x3da7f567	0.08201104
32	0x3e4efd27	0.20213757
33	0x3d976d5e	0.07393907
34	0x3e50e97a	0.20401564
35	0x3df06e40	0.117397785
36	0x3e9512e8	0.29115987
37	0xbdc3f5d3	-0.095683716
38	0x3e9eb728	0.30999112
39	0x3e60b843	0.2194529
40	0xbd3b12a2	-0.045672067
41	0x3baea0b3	0.0053292154
42	0x3b15b84a	0.002284544
43	0xbb722a49	-0.0036951473
44	0xbe024b40	-0.12724018
45	0x3c49edf7	0.012324802
46	0x3d109397	0.035297003
47	0xbd08e848	-0.033424646
48	0x3da9375d	0.08262513
49	0x3dff19e6	0.124561116
50	0xbc428d45	-0.011874502
51	0x3d882c24	0.06649044
52	0x3d8a292f	0.067461364
53	0xbb830424	-0.0039982963
54	0xbcc67bc5	-0.02422894
55	0x3c8bb45f	0.017053781
56	0xbda51d6d	-0.08062253
57	0x3cadd3a2	0.021219078
58	0x3d201b5f	0.039088603
59	0xbdbec391	-0.09314645
60	0xbc447e2b	-0.011992971
61	0xbc893b1a	-0.016751815
62	0xbcdef274	-0.02721522
63	0xbdcfcef7	-0.10146897
64	0x3bdfb813	0.0068273633
65	0x3c86b2f9	0.016442763
66	0x3d0e1da6	0.034696244
67	0x3cbc4211	0.022980722
68	0xbc62b830	-0.013837859
69	0x3d247dcf	0.040159043
70	0xbbe02473	-0.0068402826
71	0x3d832de8	0.0640524
72	0x3c73ac6c	0.014872652
73	0xbc6e25c2	-0.014535369
74	0x3cb90a83	0.02258802
75	0x3d08e478	0.03342101
76	0xbd34bf1c	-0.04412757
77	0xbd14d838	-0.036339015
78	0x3c6d0441	0.014466346
79	0xbc0bbd12	-0.008528965
80	0xbce935ce	-0.028468039
81	0x3dbaf4c9	0.0912872
82	0x3d13c866	0.036079787
83	0xbd11505c	-0.035477027
84	0x3c899e0f	0.016799001
85	0xbd099f94	-0.03359945
86	0xbcdfe612	-0.027331386
87	0x3cad274c	0.021136902
88	0x3d87d672	0.06632699
89	0xbc898020	-0.016784728
90	0xbbc13848	-0.005896602
91	0xbc5ca55f	-0.013467162
92	0x3dbd78df	0.0925157
93	0x3cc6b04b	0.024253985
94	0xbe0634aa	-0.13106027
95	0xbd1d5988	-0.03841546
96	0xbd7a2c57	-0.061077442
97	0xbc401bc2	-0.011725368
98	0x3d5ab785	0.053397674
99	0xbd31c6e4	-0.043402568
100	0x3d5ac698	0.05341205
101	0x3bf0cf24	0.007348912
102	0x3d9dbbe7	0.07701855
103	0x3e806c4b	0.2508262
104	0x3e5a724f	0.21332668
105	0x3e18c24c	0.14917868
106	0x3e6c7ffb	0.23095696
107	0x3e270560	0.16310644
108	0x3e27962c	0.1636588
109	0x3e2b9e9e	0.16759726
110	0x3dce1fc9	0.10064656
111	0x3d1c1b71	0.038112108
112	0x3dff6b07	0.12471586
113	0xbb8834bb	-0.0041566766
114	0xbd33b15f	-0.043870326
115	0x3bc882f4	0.0061191265
116	0x3db16f2d	0.08663783
117	0x3dd4a2ef	0.103826396
118	0x3d001593	0.031270575
119	0x3cc8b6fa	0.024501313
120	0x3c51b0df	0.012798517
121	0xbe72a43f	-0.23695467
122	0x3e119e95	0.1422065
123	0x3c8e28c2	0.01735342
124	0x3d60c37d	0.054873932
125	0xbe2357a7	-0.15951405
126	0x3df88ed2	0.12136616
127	0xbe2b790c	-0.16745394
128	0x3e8a0cc2	0.26962858
129	0xbe406f12	-0.1879237
130	0x3d9b9839	0.075973935
131	0x3bad9866	0.0052977083
132	0xbd87916b	-0.06619533
133	0x3e81c5ef	0.25346324
134	0xbdbf4699	-0.09339637
135	0x3da26179	0.07928748
136	0x3e500062	0.20312646
137	0x3e810578	0.25199485
138	0x3d8b18e4	0.06791857
139	0x3e06b885	0.13156326
140	0xbd1b7c8a	-0.037960567
141	0x3e0ba509	0.13637175
142	0x3e214218	0.15747869
143	0x3e9a8999	0.30183104
144	0x3dbb4a1a	0.09144993
145	0x3e2adbc4	0.16685396
146	0x3bf55bbf	0.0074877436
147	0x3e402338	0.18763435
148	0x3e6cb9d5	0.23117764
149	0x3e28b21b	0.16474192
150	0x3d423e45	0.047422666
151	0x3dcc7b12	0.09984411
152	0x3e0a6843	0.13516335
153	0x3dbf26ed	0.093335964
154	0x3e2ccdd0	0.16875386
155	0x3c930f5b	0.017951658
156	0x3c4e5a61	0.01259479
157	0xbd98d832	-0.07463111
158	0x3e0447e5	0.1291805
159	0xbd8ccb04	-0.0687466
160	0xbb9f1fac	-0.0048560705
161	0xbce3c31b	-0.027802994
162	0x3df6d637	0.12052577
163	0x3e3786ec	0.17922562
164	0x3ca1fd84	0.019774206
165	0x3e00335e	0.12519595
166	0x3e3270cd	0.17425843
167	0x3d4cbbde	0.04998385
168	0x3e5b4cec	0.21416062
169	0x3e7d0d00	0.2471199
170	0xbc25c77d	-0.0101183625
171	0xbdb01b96	-0.085990116
172	0xbe5000d5	-0.20312817
173	0xbe5640c2	-0.2092314
174	0x3d416bce	0.04722195
175	0x3acdf11b	0.0015712114
176	0x3cc2e0de	0.023788866
177	0x3da9295d	0.082598425
178	0xbe1963b2	-0.14979437
179	0x3dd26501	0.10273171
180	0xbd6e72bd	-0.05821489
181	0x3d8f5cea	0.07000144
182	0x3d989d0a	0.07451828
183	0x3cb5de03	0.02220059
184	0xbce6fbb8	-0.0281962
185	0x3be288f7	0.0069133
186	0xbca55738	-0.02018319
187	0xbd313996	-0.04326781
188	0x3cee4f37	0.029090507
189	0xbd1984a5	-0.037480015
190	0xbd0d4c02	-0.034496315
191	0x3d116335	0.035495
192	0xbdc3c13e	-0.095583424
193	0x3e003b39	0.12522592
194	0xbce8e9a4	-0.028431721
195	0x3d10c8bf	0.035347696
196	0x3beeaf7e	0.007284104
197	0xbd662a98	-0.056192964
198	0xbd379273	-0.0448174
199	0x3b9a20c0	0.004703611
200	0x3d14c779	0.036323044
201	0x3daf40d7	0.08557289
202	0xbc978b9f	-0.018499194
203	0xbc9c7007	-0.019096388
204	0x3d919703	0.07108881
205	0xbc4d495b	-0.012529696
206	0xbd88ffcb	-0.06689414
207	0x3d51c231	0.051210586
208	0xbc951feb	-0.018203696
209	0x3c8ca557	0.017168684
210	0x3d0a87a0	0.03382075
211	0xbe04d1f5	-0.12970717
212	0x3df59611	0.119915135
213	0xbd988bc6	-0.07448535
214	0xbd9088e6	-0.07057361
215	0xbd255abd	-0.040369738
216	0xbd37bc0a	-0.044857062
217	0x3dccc25f	0.09998011
218	0xbd627544	-0.055287614
219	0x3dbf5081	0.09341527
220	0xbd323a97	-0.043512907
221	0x3d6475b3	0.05577631
222	0x3d2acbe1	0.04169834
223	0x3c824759	0.015903162
224	0x3c58671d	0.013208178
225	0x3c400c3f	0.01172167
226	0xbd02756e	-0.03185027
227	0xbc9ed8bb	-0.019390455
228	0x3da5024d	0.080570795
229	0xbcd9c1a4	-0.026581593
230	0x3c06ae28	0.008220233
231	0x3d6dbee8	0.05804339
232	0x3d91bd88	0.07116228
233	0xbcd3eb34	-0.02586899
234	0xbd1d90dc	-0.038468227
235	0x3d76e18b	0.06027369
236	0xbd9ab524	-0.07554081
237	0x3d098bf1	0.033580724
238	0xbc8288ab	-0.015934309
239	0xbd07bce8	-0.03313914
240	0x3e80273c	0.25029933
241	0xbe02dd60	-0.1277976
242	0x3e4b0712	0.19826916
243	0xbded30d1	-0.115815766
244	0x3e71c840	0.23611546
245	0xbd31978d	-0.04335742
246	0x3e912a82	0.28352743
247	0x3d56a56c	0.052403852
248	0x3e3065fc	0.17226404
249	0xbca1dc66	-0.019758414
250	0x3e9054c0	0.2818966
251	0x3e0555ce	0.13021013
252	0x3dd3e49c	0.10346338
253	0x3e1e5e4b	0.15465657
254	0x3e1db437	0.15400778
255	0x3dbdc73b	0.09266516
