components/esp_facenet/face_detection/coefficients/onet/model/onet_l6_offset_weight.npy (npy, 4224 bytes, 1 tensors)

array f4 [256, 4]
000000 23 1b e9 3c 87 57 dd 3d f6 48 05 be ee 1c 00 ba
       0.028455323 0.1080771 -0.13016114 -0.00048871234
000010 ea a4 a1 3d 74 05 77 bd 55 7a 55 bd 62 21 c7 3d
       0.07892783 -0.060307935 -0.052118618 0.09723164
000020 f2 14 cd 3a b6 6d 4c 3d 04 88 60 3d 42 49 ec bd
       0.0015646501 0.049909316 0.054817215 -0.1153741
000030 98 20 98 bd 1f e0 df bd ec 16 06 bd 7c 54 b7 3d
       -0.07428092 -0.109314196 -0.032736704 0.08951661
000040 d2 00 87 b9 8a 7e 11 bc 28 de 3f bb 98 b2 04 3c
       -0.00025749818 -0.008880267 -0.0029276703 0.008099221
000050 f8 bf 21 3c aa 24 3b 3b 44 ff ed bb 92 50 9c 3b
       0.009872429 0.002855579 -0.007263096 0.004770347
000060 f5 8b 37 3d 02 8a 06 3d a4 62 63 bc e7 a2 c5 3c
       0.044811208 0.03284646 -0.013878498 0.02412553
000070 91 3f e7 3d c7 95 44 3c 2d 45 bb bd 8e 61 e7 3c
       0.11291421 0.0119986 -0.091440536 0.02824476
000080 bc 70 b9 3a 5b 60 b3 ba c7 31 e6 3a 5a 61 e7 3b
       0.0014147977 -0.0013685332 0.0017562442 0.0070611658
000090 19 bb 8e 3b ea 98 e3 bd 05 3c 99 bd 69 f2 51 bd
       0.0043558 -0.111131504 -0.07482151 -0.05125657
0000a0 32 40 39 be a2 34 18 bc 33 ba b2 3c bd 6c 9c bc
       -0.18090895 -0.009289892 0.021817302 -0.01909482
0000b0 02 3d fe 3c 8f bd f4 bc 81 52 c9 3c 91 78 a9 bc
       0.03103495 -0.029875545 0.024575474 -0.020687373
0000c0 df ec f3 3d 86 ba a3 3d 0f 9b 78 3b a1 d8 68 3d
       0.11910414 0.07994561 0.003793422 0.05684722
0000d0 56 5c 40 b8 95 ef 08 3b 6a ba 4d 3b 34 a2 8e 3b
       -4.586236e-05 0.0020894755 0.003139163 0.004352832
0000e0 39 98 48 bd 5f af 91 3c bc c8 0f bc 28 d5 81 bd
       -0.048973296 0.017783819 -0.008775886 -0.063394845
0000f0 e3 93 83 3c 29 b6 89 3c e6 00 93 3b 4c a0 0b 3c
       0.016061729 0.016810494 0.004486191 0.0085221045
000100 da 39 0b bd c3 ba cc 3c 80 43 84 bb 6e 59 f3 3c
       -0.03399072 0.024991399 -0.004036367 0.02970573
000110 ad b5 1e 3d 37 de 6a bd 27 76 fe 3c 8d 4a d0 3c
       0.03874748 -0.057340827 0.031062199 0.025426174
000120 5d b3 c2 3d b3 ea 5c be b4 5e 49 3d 11 f2 a1 be
       0.09506867 -0.21573906 0.04916258 -0.31629995
000130 bc a0 99 3d bd 61 94 3d 7f 47 a9 bd 5d dc 8c 3d
       0.07501361 0.072452046 -0.0826559 0.068779685
000140 12 ee b8 3c 75 79 52 3c 8d d5 3d 3d 99 37 fa 3d
       0.022574458 0.01284634 0.046346236 0.12217636
000150 7f f5 2e 3e 4f e4 08 be 0c 66 1e 3d bb f9 3c be
       0.17085837 -0.13368343 0.03867154 -0.1845464
000160 fa db 99 39 17 a2 d5 bb 1a 72 a4 39 1e 30 df ba
       0.0002934633 -0.0065195668 0.0003136553 -0.001702789
000170 47 aa 0a be 9e 39 7c bd c3 43 fa 3d c4 f8 77 bb
       -0.13541518 -0.061578386 0.12219956 -0.0037837485
000180 1c 09 2b bb e1 20 c9 bb 6e 09 66 3a 9c 49 8c bb
       -0.002609796 -0.0061379527 0.0008775209 -0.004281236
000190 79 06 22 3e 11 fe c0 3d 56 16 a7 3d 67 72 5e 3d
       0.15822782 0.09423459 0.08158557 0.05430832
0001a0 cd 97 06 be 87 04 60 be f8 6a 0d be 5e c3 a8 bd
       -0.13143845 -0.21876727 -0.13810337 -0.08240388
0001b0 d9 9b 22 3e d5 03 7b 3e f6 86 b9 bd 3c ec 42 3e
       0.15879764 0.2451318 -0.09058945 0.19035429
0001c0 5f 24 da bb 65 9e c9 3a 2c 7d c9 b9 7d 8e c5 3a
       -0.006657168 0.0015382288 -0.00038430968 0.0015072372
0001d0 df 5b 66 bd 0d d9 ee bd 79 c3 f9 bc 72 ae 79 3d
       -0.05623996 -0.11662493 -0.030488716 0.06095738
0001e0 0f a8 59 bc c8 5e c3 ba 81 64 14 bd 08 a8 90 3d
       -0.013284697 -0.0014905566 -0.03622866 0.070632994
0001f0 19 bf 62 3e e7 41 08 be b0 48 54 3e 92 03 93 3d
       0.2214321 -0.1330639 0.20730853 0.07178415
000200 95 40 17 bc e0 02 fe 3b 5c 44 9e ba af 1c 19 3a
       -0.009231706 0.0077518076 -0.0012074816 0.0005840761
000210 c6 6e 11 bc 8f cf da 3b a2 87 5a 3a 71 93 e1 bb
       -0.008876508 0.006677575 0.0008336251 -0.0068840315
000220 76 02 5e b8 9a 92 06 bc 48 b6 07 bb 68 0a 36 3b
       -5.2931216e-05 -0.0082136635 -0.0020708013 0.0027777199
000230 55 e1 13 3e f9 09 f6 3c ef ad 11 3e 18 b1 e3 bd
       0.14441426 0.030034052 0.14226507 -0.11117762
000240 52 77 d2 3b 22 27 d6 bc 33 e5 fc 3c 44 ea 9e bc
       0.0064229155 -0.026141707 0.03087101 -0.019398816
000250 fb d1 a3 3d 45 b2 db 3d 3b 8b c7 bc 7c 4b 19 3d
       0.07999035 0.107273616 -0.024358382 0.037425503
000260 9d a3 81 3d 77 08 13 be 77 18 60 be 96 37 21 3d
       0.06330035 -0.14358698 -0.21884333 0.03935965
000270 20 c6 40 bd 13 48 d2 bd 9e 52 93 3d 5f 66 8c bd
       -0.047063947 -0.10267653 0.07193492 -0.06855463
000280 69 15 af bc 16 67 9c 3c dc cd ba ba cd 7f 53 3d
       -0.021372514 0.019092124 -0.0014252025 0.051635552
000290 23 06 f3 3c 03 be f6 3c 67 ed 52 3d 8c 3f a4 3d
       0.029666012 0.030119902 0.051495936 0.08019933
0002a0 ff 03 77 3b 01 36 bf bb 09 3b f4 39 f0 82 23 3b
       0.003769159 -0.005835295 0.0004658329 0.002494987
0002b0 40 81 0a bc 15 be 3c bd fd 55 34 bd 88 70 38 3b
       -0.008453667 -0.046079714 -0.044027317 0.0028143246
0002c0 4d 2c 92 bb a5 72 96 bb 3d 6e c5 3a 40 26 d3 39
       -0.0044608475 -0.0045913034 0.0015062761 0.00040273555
0002d0 b5 d9 cb 3a 27 0d 9b bb f0 18 08 bb e3 f2 f1 ba
       0.0015552553 -0.0047317925 -0.0020766817 -0.0018459227
0002e0 82 22 24 bd bf 1c 36 bc a6 00 72 3d fa a2 e2 3c
       -0.04007197 -0.011115252 0.05908265 0.027665604
0002f0 6c a6 c5 bb 8c ad 21 3b 43 37 17 3a 8d 68 9f bb
       -0.006031802 0.0024670092 0.00057684275 -0.0048647583
000300 44 e2 95 bd 0d 88 98 3d c2 a5 e2 bb b3 27 bf 3d
       -0.07318547 0.074478246 -0.0069167325 0.09333744
000310 58 d3 19 bb c9 cc 65 3b 61 4f 56 3c 9b 97 8f bb
       -0.0023471918 0.0035064688 0.013080449 -0.0043820865
000320 51 64 c6 3d 03 c5 ac bd 0f b7 90 bd f6 af 82 bd
       0.096871026 -0.084360145 -0.07066166 -0.06381218
000330 ba 0a 1f 3d 47 c4 d9 3d 9b d6 c1 3d 38 05 89 bd
       0.03882859 0.1063314 0.09464761 -0.066904485
000340 fd 56 3f 3d ef db d1 bc 84 4e 68 bc 5a eb e1 3d
       0.046713818 -0.025617568 -0.014178876 0.11031218
000350 15 0c cd 3b 37 43 20 3b 97 ef 7d bb b0 e1 c6 3b
       0.006257544 0.0024454126 -0.0038747543 0.0060693845
000360 ff 67 4e bd 9b 51 4c 3e df 2f 9b 3d 01 12 1f 3e
       -0.050392147 0.19953005 0.0757749 0.15534212
000370 c0 f3 13 3d 88 08 0b bd 78 96 08 bd e8 c6 5a bd
       0.03612113 -0.033943683 -0.033346623 -0.053412348
000380 1c b2 5f 3d b7 73 06 be 7e 1c 74 bd 58 45 d8 3d
       0.054613218 -0.13130079 -0.059597485 0.10560101
000390 df 50 35 3b 44 3e 0c 3b 78 ea 0a bc 0e 1d 4e bb
       0.002766661 0.0021399418 -0.008478753 -0.0031450423
0003a0 d1 94 18 be c8 84 5a 3e ba 64 fb bd 4f 7c 5d 3d
       -0.14900519 0.21339715 -0.122750714 0.054073628
0003b0 f5 0f 68 3d bc d7 d1 3c 76 d0 36 3c af e0 52 3c
       0.056655843 0.025615565 0.011158099 0.012870952
0003c0 72 ca 22 be 74 9b ca bd a4 3a 1d be 0d f9 51 be
       -0.1589754 -0.098929316 -0.15354401 -0.20505162
0003d0 7c 84 8e 3c bd d2 3e bc d8 82 34 bc 0e 80 2d bd
       0.017397158 -0.011646924 -0.011017524 -0.04235845
0003e0 77 09 4f 3d 6b 48 6f 3d 8b eb 11 be 6f 18 50 3d
       0.050546136 0.058418673 -0.14250009 0.05080455
0003f0 ca e5 6c ba 2c bb d1 bb b7 ee b3 39 0f 62 44 3a
       -0.0009036927 -0.0064004865 0.00034319397 0.00074914185
