components/esp_facenet/face_detection/coefficients/onet/model/onet_l6_landmark_weight.npy (npy, 10368 bytes, 1 tensors)

array f4 [256, 10]
000000 18 db d3 3c ac b1 06 3e f6 cf 30 bd 46 d0 7b 3d
       0.025861308 0.13153714 -0.043167077 0.061477922
000010 0f 22 ed 3b 71 6e 2e 3d bb 69 79 3c 4b 51 e9 3d
       0.007236726 0.042585794 0.015222962 0.113924585
000020 54 72 85 3c 09 2b 30 3d ff 8b 26 bc a5 7d 8c 3c
       0.016289867 0.04300979 -0.010165214 0.017149756
000030 20 ba 49 bc ed 47 90 bb cd 47 01 bc 46 09 f4 bb
       -0.012312442 -0.0044031055 -0.007890654 -0.0074473945
000040 69 d9 e2 3b 77 19 8b ba c8 73 c8 3b 91 5a c5 bb
       0.00692289 -0.0010612448 0.006117318 -0.0060227592
000050 7c 6a f0 3c 17 4d c1 3a 9d de 9a 3c 5e ca 25 3d
       0.02934765 0.0014747706 0.018904978 0.040476196
000060 a1 92 35 bd 05 90 1d 3c fd 6f 66 bb f8 1c 78 3c
       -0.04432929 0.009616856 -0.0035161965 0.015143625
000070 55 09 66 bc 91 a8 ab bc 15 bb 85 3c 6d 69 f9 bb
       -0.014040311 -0.020954402 0.01632456 -0.0076114447
000080 13 92 77 ba 6e ed 96 39 aa 0a b8 bb 8b f8 2a bc
       -0.0009444069 0.00028787128 -0.0056165056 -0.010435234
000090 77 ac 62 3c be 1f d8 3c 8b e3 b9 bc fa c6 8f ba
       0.013835064 0.026382323 -0.022691509 -0.0010969334
0000a0 e2 33 66 bb cd ff 63 b9 04 8e 45 3a ed a4 12 3b
       -0.003512614 -0.000217437 0.00075361156 0.0022376135
0000b0 29 98 d4 ba e6 a1 4c b9 23 15 4c 3b e9 21 4d 3b
       -0.0016219664 -0.00019515268 0.0031140528 0.003130073
0000c0 d9 bc a0 3b 74 54 87 3a f8 12 b0 bb 9e 93 a3 ba
       0.004905325 0.0010324852 -0.005373355 -0.0012479906
0000d0 0d c2 17 39 62 0f 4b 3b 43 d4 b8 bb b8 24 49 3b
       0.00014472772 0.003098451 -0.005640538 0.0030692052
0000e0 55 20 a8 ba fc 57 aa 3b 9c d3 95 b9 2f b7 a2 bb
       -0.0012827019 0.005198477 -0.00028577156 -0.004965685
0000f0 48 8e cf bb f1 63 a5 bc 3c 1d 8e 39 80 cd 54 3c
       -0.0063341 -0.020189257 0.00027106132 0.012988448
000100 2d 19 27 3b 09 11 53 3b c8 07 0a 3b 3a 6f 8a bc
       0.0025497184 0.0032206199 0.0021061767 -0.01689874
000110 03 b9 ad 3a 2a fd 54 bc f0 8b 1b 3d d7 78 50 3c
       0.001325399 -0.012999812 0.03797525 0.012724123
000120 cc 85 19 be a9 34 ec 3d 4d dd 2e bd 72 09 53 3e
       -0.14992446 0.11533482 -0.042691518 0.20609072
000130 c0 0f 09 bd 44 67 dd 3d a1 f3 b6 bd d3 3f 68 3e
       -0.033462286 0.10810712 -0.08933187 0.22680597
000140 70 5a 90 bb 2f 6e 96 b9 40 76 28 bb 00 be 65 39
       -0.0044053122 -0.00028692323 -0.0025705248 0.00021909922
000150 d0 70 46 ba 9e 14 a3 3b d7 d9 95 bb b3 b3 8d ba
       -0.0007569911 0.004976823 -0.0045730877 -0.0010811001
000160 97 9c 90 ba ee 68 be 3b 13 b1 76 bd 2d 1b 30 bc
       -0.0011032996 0.0058108484 -0.060227465 -0.010748667
000170 ed 4b 8a 3d 00 70 c7 3d f7 39 32 3e 67 96 4d 3d
       0.06752763 0.09738159 0.17404924 0.050192263
000180 84 d3 12 3e 44 37 be 3d 00 de b8 3c b9 df f6 3d
       0.143385 0.09287885 0.022566795 0.120543905
000190 90 33 3b bc a8 b5 9c bc c9 fb 4f bd 95 e3 72 3c
       -0.011425868 -0.01912959 -0.05077723 0.014824768
0001a0 59 02 34 bd d5 03 05 bd df 48 e2 3c 8e 63 b1 3c
       -0.04394755 -0.032474358 0.027622638 0.021653917
0001b0 5c 45 00 3d d6 94 4a bc f1 2e 85 bb 29 85 65 bb
       0.031316146 -0.012364587 -0.0040644337 -0.0035021997
0001c0 91 73 17 3c 8c 35 86 3b f1 80 3a 3c 35 ca cb ba
       0.009243862 0.0040957388 0.011383281 -0.0015547933
0001d0 2a 04 80 bc 0c bf de 3b 2c 34 8f bb f9 f3 43 3c
       -0.015626986 0.006797677 -0.004370233 0.011960023
0001e0 a5 84 74 3c 9d b0 60 bc 7d 22 8d bc ff dc c9 3c
       0.014924203 -0.013713983 -0.01722836 0.024641512
0001f0 51 c2 06 3c 0f ce 33 3c 64 0e 98 bb 94 47 a1 3b
       0.00822504 0.010974421 -0.0046403874 0.004921863
000200 36 fb 15 bd 75 8f b8 3c 0c ab 0f 39 bb 70 35 3a
       -0.036616527 0.022529343 0.00013701263 0.00069214
000210 57 c9 4f 3b a6 e5 dc 39 c2 25 8c 3b 90 92 05 bb
       0.0031705701 0.0004213277 0.004276962 -0.0020381548
000220 bf 53 84 ba b7 db 3a bb 15 88 39 3b 40 37 cb 3b
       -0.0010095759 -0.0028512308 0.002830987 0.0062016547
000230 81 2c 93 bc c2 89 c8 39 8a f1 84 bb f7 43 4b 3b
       -0.017965557 0.0003824961 -0.004057114 0.0031015852
000240 8d d2 11 bc 93 ce 9e ba 60 46 cf bb 16 fb 81 bb
       -0.008900297 -0.0012116007 -0.006325528 -0.0039666994
000250 42 c7 9b ba c1 27 d4 3c 94 9a c5 bb 5b 0b a5 bb
       -0.0011884945 0.025897862 -0.00603039 -0.005036754
000260 a2 90 7d bc e4 36 f8 bb 90 c2 49 3c 5d dd ff 3b
       -0.015476378 -0.007574903 0.012314454 0.007808371
000270 15 a0 df 3b 51 c3 70 bc 86 a1 9d 3b b6 ca e7 3a
       0.006824503 -0.014695005 0.004810515 0.0017684314
000280 d9 e9 ed 3c 3c ea 61 3c 05 7a 59 3d c2 a4 a6 bc
       0.029042171 0.013788756 0.053094883 -0.020342235
000290 da 88 cf 3b b6 19 e3 3c f3 3e dd bc 62 57 cd ba
       0.0063334526 0.02772222 -0.027007556 -0.0015666301
0002a0 09 08 33 bb d2 04 29 bc 86 c5 10 bc cc 97 0c bc
       -0.0027318022 -0.010316091 -0.008836156 -0.008581113
0002b0 09 85 fb 3c fa 7c 8f 3b fe 0e ad bc 4c 73 11 3d
       0.030703085 0.004378912 -0.021125313 0.035510346
0002c0 7a c0 1d bd 46 b8 ad 3c 30 b0 a9 bc 50 29 1f 3c
       -0.038513638 0.021206032 -0.020713896 0.0097144395
0002d0 1a 88 9c bc 1c 37 92 bd ec cb 43 bd b5 55 01 3d
       -0.019107867 -0.071394175 -0.047801897 0.031575877
0002e0 b8 25 26 bc bf cc 25 3d db d2 f4 bc 09 1b 91 bc
       -0.010140829 0.040478464 -0.0298857 -0.017713087
0002f0 5e d0 87 bc 90 fa 6c 3d b7 9c 11 3e 5a 72 f8 bc
       -0.01657885 0.057856143 0.14219938 -0.030327965
000300 bb 60 3c 3e 5e 72 2d 3d 5c ff 18 3e 64 7f 13 3e
       0.18396275 0.042345397 0.14941162 0.14404064
000310 5d e2 e8 3d 04 de 30 3d 6e e6 36 3e 62 29 1f 3e
       0.113713 0.04318048 0.1786134 0.1554313
000320 06 00 7b 3c c7 cd 34 bd 9b 6b 5f 3a 23 94 10 3d
       0.01531983 -0.044141557 0.00085228094 0.035297524
000330 81 c5 c3 bb 89 d2 cb 3c 84 52 f0 3b 98 55 69 3c
       -0.005974472 0.024880664 0.0073340554 0.014241599
000340 cb 0a 2b bd 6f 6b 1e 3d a5 10 0a 3e f5 2f e7 3d
       -0.04175834 0.038676675 0.13482912 0.11288444
000350 ad 03 58 3e 78 c8 9e 3d c0 9c 4a 3e 0f bd c5 bc
       0.21095152 0.0775308 0.19786358 -0.024138002
000360 8a 04 84 3e a8 5b 20 3e 9d 1c 02 3e 7b 8a 88 3d
       0.25784713 0.15659964 0.12706228 0.06667038
000370 dc 27 7a 3b 58 c1 52 ba f4 f5 81 ba 4b 15 12 bb
       0.003817073 -0.0008039675 -0.0009915219 -0.0022290524
000380 66 98 8c 3b 4a 1b d0 3b cc 5e fa ba 82 cd 54 bb
       0.0042906282 0.0063509094 -0.0019101738 -0.0032471125
000390 b0 98 cb ba 67 f7 84 ba 5b 30 1a 3d 42 dc e6 bb
       -0.0015533175 -0.0010144532 0.03764377 -0.0070452997
0003a0 65 c9 0c bc b0 26 29 3e 7b 0e db 3d d8 a5 b0 bd
       -0.008592938 0.16518664 0.10696121 -0.08625382
0003b0 ec 40 42 3e a2 44 82 3d aa 78 c7 bb 99 56 13 3e
       0.18970078 0.06360747 -0.0060873823 0.14388503
0003c0 5d 12 fa ba aa f5 cf 3a 0d 8f b1 3a 0b cc a0 ba
       -0.0019078959 0.001586606 0.0013546661 -0.0012267841
0003d0 46 48 a7 bb c5 74 23 3c d5 99 1a 3a 58 bb 6f 3b
       -0.005105051 0.0099765705 0.00058975565 0.0036580171
0003e0 7e a7 04 3b b9 bf 8b 39 7a cf 8f 3d f0 26 19 3e
       0.0020241435 0.0002665499 0.07021995 0.1495626
0003f0 89 37 19 3e e3 9a ba 3d a0 c8 30 3a 55 18 9b 3d
       0.14962591 0.091115735 0.00067437626 0.07573
