components/esp_facenet/coefficients/onet/model/onet_l4_bias.npy (npy, 640 bytes, 1 tensors)

array f4 [128]
000000 4c f9 7c b8 c7 92 14 3e 95 ae e5 3d 15 83 93 bb
       -6.0313658e-05 0.14509116 0.112149395 -0.00450171
000010 13 e7 df bc 88 1a 89 3d 22 98 b9 3d 3d 58 12 3c
       -0.027331864 0.066945136 0.0906222 0.00893217
000020 08 fa 6e 3d df 8d 8a 3d 12 01 19 3e 5d d1 6a 3d
       0.058343917 0.06765341 0.14941815 0.05732857
000030 64 62 c8 3d af f1 bc 3d 1c 06 0a 3e b6 37 03 bd
       0.097843915 0.09225785 0.13478893 -0.032035552
000040 36 12 aa bd 13 05 a6 3d e2 e4 69 3e 02 44 23 3e
       -0.08304255 0.081064366 0.22841218 0.15943912
000050 2b ae e2 bc 6a 3d bd bd a8 80 dd 3d 41 a6 4f 3c
       -0.02767094 -0.092402294 0.10815555 0.012673915
000060 42 cd 07 3c 2e 58 c4 bc 24 0d 14 3a da 77 2b 3e
       0.008288683 -0.023967829 0.000564771 0.16744938
000070 61 6e 46 3b b0 95 b9 3d b4 85 f3 3d a2 7c 81 3d
       0.0030278193 0.09061754 0.11890736 0.063226
000080 dd a7 5e 3d 77 57 47 3e 07 03 cf bd 08 9c ee 3c
       0.054359306 0.19466959 -0.10107999 0.029127136
000090 d4 b6 13 3e 15 2e 06 bd 94 e2 1e 3c 7d 5d c1 bc
       0.14425212 -0.03275879 0.009697575 -0.023604149
0000a0 24 e6 dd 3d a9 80 83 3d 9a b7 69 bd cb f0 26 3e
       0.108349115 0.06421024 -0.05705986 0.16302793
0000b0 e0 28 cc 3d 98 4f 1a 3b ed a5 9a bd 37 bf aa bc
       0.09968734 0.0023545977 -0.07551179 -0.020843131
0000c0 b2 4e b6 bc d5 64 da 3d 89 d9 0a 3e cb 5d 02 bd
       -0.022254322 0.106637634 0.13559546 -0.03182773
0000d0 16 28 c4 3d 77 fe a0 3d 6c 5e 0b 3e 52 ea 9c bc
       0.09577958 0.07861035 0.13610238 -0.019154701
0000e0 06 db 38 3e 51 7c a3 3d e1 95 2f 3c 81 48 3e bd
       0.18052301 0.07982696 0.010716886 -0.046455864
0000f0 54 c2 7b 3d 0f 4b 8d bd dd 11 df 3d 24 7a 07 3e
       0.061464623 -0.06899082 0.10892079 0.13230187
000100 f2 ce 31 3d 6c 3d ec bd cb 3e 5c 3d 94 98 fe 3d
       0.04341025 -0.11535153 0.05377082 0.12431446
000110 18 c5 fb bc a0 86 64 3d 78 16 6b bd 2f 6c d6 3d
       -0.03073363 0.05579245 -0.057394475 0.10469853
000120 85 d7 d1 3a 9b 9a 1d 3e 17 c5 11 3e 61 52 04 3d
       0.0016009664 0.15391009 0.1423534 0.032305125
000130 77 d2 9e 3d 43 4d b6 bd 6a 65 ef 3d 8d 8e 42 3e
       0.07754987 -0.08901455 0.11689265 0.18999691
000140 36 71 11 3b 81 bf b0 3d 0c 82 97 3d 89 fc 8b bc
       0.0022192723 0.086302765 0.07397851 -0.017088192
000150 c5 dd c9 3d e5 95 66 bd a6 a4 0e 3d 2b d1 4c 3d
       0.09856752 -0.056295294 0.03482499 0.050004166
000160 ec df 31 3d 2a 5a a8 3d 3c 63 a0 3c 48 b7 36 3e
       0.04342644 0.082203224 0.019578569 0.17843354
000170 9a 44 03 3e ea 81 9b 3d 98 b4 76 3d 0f 37 e1 bc
       0.12819138 0.075931385 0.06023082 -0.027492074
000180 b9 2e 36 bd 4f e1 19 bb be 90 9d bd c4 8d 25 bd
       -0.044478152 -0.0023480242 -0.07693623 -0.0404184
000190 04 7b 9a 3e cb 5c a3 bd a7 2c ed 3d 39 7d 60 3e
       0.30171978 -0.07976683 0.115807824 0.21922769
0001a0 21 43 56 bc 6c 11 0f 3e d8 f4 91 3d 2b ed 0f 3e
       -0.013077528 0.1397149 0.07126778 0.14055316
0001b0 04 ce 9b bd bc 6e 12 3a 2d 8a 86 bc 61 03 ad bc
       -0.07607654 0.0005585959 -0.01642331 -0.021119775
0001c0 42 b7 89 bd b1 41 6d 3e e3 01 c4 3b bd 6c e6 3d
       -0.06724407 0.2316959 0.00598167 0.11251209
0001d0 54 ec 2f 3e 94 30 bf bd cb bd ce bc 59 67 01 3d
       0.17179996 -0.093354374 -0.025236985 0.0315927
0001e0 69 66 07 3e 59 c2 db 3d 07 30 73 bd 56 2f 00 3e
       0.1322266 0.10730428 -0.059371974 0.12518057
0001f0 b2 c4 0d 3e 66 2b 7a 3e e5 9d c5 bc 18 fa 93 3d
       0.13844565 0.24430618 -0.024123142 0.07225436
