components/esp_facenet/coefficients/onet/model/onet_l6_category_weight.npy (npy, 2176 bytes, 1 tensors)

array f4 [256, 2]
00000000: 328e 61be f0a4 c73d 0478 4d40 f2f9 4bc0
00000010: 1380 bc3e 9cf1 92be 40e6 1440 8b7e 0fc0
00000020: 94d8 343e 4333 64be df39 563f c01e 90bf
00000030: 5ce5 3c40 0a96 43c0 708a 2bbe b7df ad3e
00000040: 6ce0 d8bd e69b f6bd a50b 01bf fc5a f13e
00000050: 9757 3f40 ef4a 3ec0 00d3 a1be d1d5 8b3e
00000060: 2bb3 ee3f 8bea e1bf c888 4d3c ee10 e4bb
00000070: dec7 cabe 7eb8 013f f44e d33f 24fa d0bf
00000080: cd86 043f b8b2 f2be 0c92 7c40 e455 78c0
00000090: 8a74 c43f dc43 bfbf b2a2 8ebe cf5a e03e
000000a0: 9e02 febe 2de7 e13e 81dd cabc 763e 743d
000000b0: 7522 c03d c32b 8d3d 42e0 29be 784f 983e
000000c0: 2e2f 79bd e12c 44bd a5fc 633e 0ae2 15be
000000d0: 6caf 0e3e 1bef 04be e6cc cb3f 499d eebf
000000e0: 5640 b6bc c3fa 60bc 9508 e33e 680c c5be
000000f0: 124b eebe d272 b43e 6662 f03e 4114 abbe
00000100: 88db 23be afcf 9c3d ae1a 133f 100a 49bf
00000110: 27ec 823d 0258 92bd f96c 84be f7e8 f83d
00000120: 0b98 b13d 4b16 143e 0939 86be ba7f e83d
00000130: 26e3 e6be f4ff d23e 8a0d 10be e6f7 4c3e
00000140: 364b 1040 e494 0ac0 be25 66bf 2239 303f
00000150: 3b3b 3dbe 0914 67bc 176d 8fbf 2292 8d3f
00000160: 35ba 413c 4030 dc3d 8dd0 8fbc 1ea1 eabb
00000170: 0fbf 363f 18ff 57bf 1313 173e 946f 78be
00000180: 3e75 5d40 2b03 68c0 305b 04bf e8f2 f93e
00000190: 48e2 08be 9b7c e3bd 9928 fb3d 39d3 73bd
000001a0: 7b3c 1f3f 4d5b bebe d772 8f3e 6300 0cbf
000001b0: cec7 6fbe d33a b03e 7509 2240 401d 2ac0
000001c0: db5b 08bf 320d fa3e 9b7d adbc 5613 02be
000001d0: 630b 1c40 013c 26c0 05af 2040 3227 1dc0
000001e0: 96d3 8d3b 8f5e 383d c393 b13f adf7 98bf
000001f0: 438c 873c 6a13 62bc 12be 153d a5c9 d83d
00000200: 314b f63e 4479 63be 7bc2 e03f 3f57 dcbf
00000210: 56d4 163e c7a0 a1bd e238 343e 1b59 06be
00000220: 7562 f8bd 01bf 173e e734 593c fcb0 30bc
00000230: 0311 9b3f a5bf 90bf 70da 223d 3eb5 4f3d
00000240: 3fd9 36bc da8e a0bd b3c9 623f de66 78bf
00000250: abd8 61be 7385 303e 43ca b83f c2e1 afbf
00000260: 5c01 1740 7232 17c0 d012 50bf e83a 123f
00000270: 0ab7 a9be d645 f53e 6272 a6be 53be 813e
00000280: a2aa 7340 28cf 72c0 c1d6 82bd 6abc 44bd
00000290: 7a67 0aba dd44 433e 8ae7 cf3f 8d9c d7bf
000002a0: 62e5 d2bd 49c0 573e 4365 863e 0938 0cbe
000002b0: c5f0 edbe 8aac a23e 48bb 2d40 704a 32c0
000002c0: 97fe 0dbd 04fb eebc fafb c53f 7456 b6bf
000002d0: 0fb9 45be f832 863e 81c0 343f 92f5 45bf
000002e0: 1774 a43c aeaf f33c 076f f7bc 3c06 9abc
000002f0: 97be dabf f97e d83f 615b ed3f 8e61 f8bf
00000300: 78ff 263c 7bf3 1bbd f234 743d 8096 8d3d
00000310: 1593 1d3e 6f37 99be a599 44be b48a 403e
00000320: 6393 fb3f 5c9c 06c0 97b9 9ebe 282b 803d
00000330: f8ed 233d acf0 8fbe b5e2 333f f3d5 15bf
00000340: 5d1c 1e40 3162 16c0 898f a03e 88a6 59be
00000350: 47de d23f 88d5 d5bf bcfd 7ebe 28cd c83d
00000360: 13b1 62be a37a 1ebd a9c6 3a3f f8d2 17bf
00000370: b3cc 15be f765 3b3e a9b7 843f 7721 7abf
00000380: 91a5 4540 c430 46c0 c11d 0c3d 877b a03c
00000390: aa18 1440 ccc2 15c0 6a5c d0bf ee4f cd3f
000003a0: fa31 343f bf0d 4fbf 031f 823f 4d8d 8ebf
000003b0: 9ede 373e 0290 c5bd 6584 af3d 3c4b 503c
000003c0: 3f76 babe 654f 813e 46c2 523c d517 b53b
000003d0: 912c 423f 0866 6dbf 563c 963e 4c31 e3bd
000003e0: d08a 9b3f c09e a2bf 9b1b 68bf 03ba 553f
000003f0: 0baa 0dbf b191 283f f24b 67bd 29c5 99bc
-0.220269 0.09748256 3.2104502 -3.1871305 0.36816463 -0.28699958 2.3265533 -2.2420986
0.17660743 -0.2228518 0.83682054 -1.1259384 2.951499 -3.0560327 -0.16752028 0.33959743
-0.1058968 -0.12041454 -0.50408393 0.47139728 2.989721 -2.9733236 -0.31606293 0.27311566
1.8648428 -1.7649702 0.012544818 -0.006960026 -0.39605612 0.5067214 1.650847 -1.6326337
0.5176819 -0.47401977 3.946414 -3.8802423 1.5348065 -1.4942584 -0.27858502 0.4381928
-0.49611372 0.44121686 -0.024763824 0.05962988 0.09381572 0.068931125 -0.16589454 0.2974813
-0.06083601 -0.047894362 0.22264345 -0.14637008 0.13934106 -0.12981836 1.5921905 -1.864175
-0.022247475 -0.013731661 0.44342485 -0.38486028 -0.4654165 0.3524385 0.46950072 -0.3341389
-0.16001713 0.076568 0.57462585 -0.7853098 0.06392699 -0.071456924 -0.2586439 0.121538095
0.08671578 0.14461629 -0.2621539 0.11352487 -0.45095176 0.41210902 -0.14067665 0.20016441
2.2545905 -2.1653376 -0.8990134 0.6883718 -0.18479626 -0.014103898 -1.1205167 1.1060221
0.01182418 0.107513905 -0.0175555 -0.00716032 0.7138528 -0.8437362 0.1475337 -0.24261314
3.460281 -3.6251934 -0.5170164 0.48818135 -0.1336757 -0.11107751 0.12263603 -0.05952761
0.6220166 -0.37179032 0.28017303 -0.5468809 -0.23416063 0.3441988 2.5318272 -2.6580353
-0.5326516 0.48838192 -0.021178057 -0.12702689 2.438195 -2.5974123 2.5106823 -2.4555173
0.0043282015 0.045012053 1.3873218 -1.1950585 0.016546374 -0.013798574 0.03655822 0.10585336
0.48104241 -0.22214228 1.7559351 -1.7214125 0.14729437 -0.07891994 0.17599824 -0.13119929
-0.12128154 0.14818956 0.013257242 -0.010784384 1.2114567 -1.1308485 0.0397591 0.050709955
-0.011160194 -0.07839747 0.8858902 -0.9703196 -0.22055309 0.17238407 1.4436725 -1.3740771
2.359458 -2.362454 -0.81278706 0.57121134 -0.3314746 0.47904843 -0.32509142 0.25340518
3.8072896 -3.7938938 -0.06388617 -0.04803125 -0.00052797014 0.19069238 1.6242535 -1.684465
-0.102976575 0.21069445 0.26249132 -0.1369325 -0.46472755 0.31772262 2.7145557 -2.7857933
-0.034666624 -0.029172428 1.5467522 -1.4245133 -0.19308876 0.2621076 0.7060624 -0.77327836
0.020074887 0.029746857 -0.03020431 -0.0188018 -1.7089413 1.6913749 1.8543512 -1.9404771
0.010192744 -0.038073998 0.059620805 0.06913471 0.15388139 -0.29925105 -0.19199236 0.18802911
1.9654354 -2.1032934 -0.3100097 0.062582314 0.040021867 -0.28113306 0.702678 -0.58529586
2.4704812 -2.3497431 0.3135951 -0.21254933 1.6474084 -1.670579 -0.2490148 0.098047554
-0.22137861 -0.038691174 0.7295938 -0.5930629 -0.14628868 0.18300615 1.0368549 -0.97707313
3.0882304 -3.0967264 0.034208063 0.019590152 2.3140054 -2.3400145 -1.6278203 1.6040018
0.7038876 -0.8088035 1.0165714 -1.1136872 0.17956015 -0.09646608 0.08570174 0.01271325
-0.3641834 0.25255886 0.012863701 0.0055265226 0.7584925 -0.9273381 0.29342908 -0.11093387
1.2151737 -1.2704697 -0.9066712 0.83486956 -0.5533759 0.6584731 -0.05646891 -0.018770771
